results/RollerBall/RollerBall.onnx (onnx, 73668 bytes, 7 tensors)

network_body._body_endoder.seq_layers.0.weight f4 [128, 8]
-0.6226363 -0.6323207 -0.10074846 -0.23451947 0.15720104 -0.014519275 0.673327 0.044515222
0.27833018 -0.12587865 0.2653707 -0.413696 -0.02108352 0.057821035 0.218113 0.02265178
-0.18825261 -0.79279155 0.28274888 -0.2391126 0.0062795402 0.20509276 -0.4809811 -0.07426498
-0.2625458 0.4933661 0.012040565 -0.386289 -0.04376182 0.1090863 -0.48064035 0.25793946
-0.4841587 0.28685296 -0.015571445 -0.14642245 0.43754727 -0.5999604 0.015308195 -0.49656528
0.02843027 0.021584166 0.08529097 -0.33174464 0.095818006 0.25635996 -0.5138779 -0.10817787
0.066925585 0.14374346 -0.52060795 -0.031478845 -0.25090545 -0.37559485 -0.6904642 0.408634
-0.06777857 -0.41492584 0.37950054 -0.18352716 0.008995894 0.3935863 0.53241503 -0.43565816
0.3665358 -0.5281732 -0.28127232 -0.20784229 -0.16666202 0.24840279 -0.12567686 -0.44777888
-0.14275947 0.40153393 -0.31298319 0.04461598 0.32542238 -0.13292764 0.6168158 0.2331177
0.10262445 0.22872505 0.33895203 -0.10930693 -0.07179768 -0.35097983 -0.77502877 -0.495157
-0.34851933 -0.032338284 0.13493991 0.12324232 0.006867675 -0.2581529 0.15309398 -0.011107841
0.4545127 0.34695485 0.6842186 -0.31404638 0.74216497 -0.27806997 -0.22841574 -0.30764621
0.6960854 -0.01589003 -0.3605301 -0.16703975 0.23719367 0.48604462 0.43751797 -0.00014609097
-0.23563968 -0.19769606 0.20272495 0.07470386 0.34336123 -0.35317633 0.03449205 0.20146668
0.64773023 -0.498227 0.20976599 -0.13591734 -0.15040673 0.12723488 -0.27580646 0.06848334
-0.32245803 0.2643553 -0.108348966 -0.35942325 -0.014354092 -0.3769251 0.1381293 -0.06499023
-0.6278391 0.18794209 -0.17875172 -0.51858675 0.080534495 0.05386735 0.58190674 0.029195568
0.033986256 0.2659715 0.2907479 0.3174177 0.011240221 -0.33216444 -0.9443465 0.32522276
-0.28806683 0.045720637 -0.70916754 -0.19619983 -0.14561531 -0.10240431 0.53122526 -0.18686451
-0.12070002 -0.9452811 -0.06125306 -0.3904836 -0.0891306 -0.02333581 0.3704865 -0.11537361
0.20633441 0.19600067 -0.10059007 0.32671067 0.19100134 0.49623504 1.1259186 -0.8785323
0.039421793 -0.16335803 -0.15800157 -0.25802642 0.4338204 0.20599946 0.34135678 0.11728945
-0.82104933 -0.19304734 -0.2773419 -0.34202692 -0.51882756 0.026740998 -0.55706036 -0.22919215
0.33547005 0.022967787 0.010592346 0.09569127 -0.28068566 -0.4980467 0.9616773 -0.2643072
-0.16725656 0.05512613 0.21262698 0.9097184 -0.11523964 -0.6700804 -0.5960093 -0.37671587
-0.4475828 -0.09103088 -0.15119104 0.47200567 0.79450244 0.14941235 0.40162313 -0.0678131
0.081323884 -0.09561413 0.53241134 0.27487075 -0.56300884 -0.51319695 -0.30663118 0.13286538
0.27119422 -0.08993441 0.1693087 -0.11726459 0.10953927 -0.027415147 0.6065229 -0.09495256
-0.34150916 -0.103216924 -0.085033126 0.3691131 -0.26192623 0.31777316 0.5074322 -0.0734743
-0.44234607 -0.41757947 -0.2768211 0.26542345 -0.590884 -0.32962167 -0.07481747 -0.11927369
-0.16731632 -0.09424777 0.2621562 -0.06146248 -0.51015294 0.033549443 -0.016896209 0.56509006
00000000: 1865 1fbf c5df 21bf 3555 cebd df25 70be
00000010: 4ff9 203e 41e2 6dbc 295f 2c3f 9855 363d
00000020: 4b81 8e3e 55e6 00be abde 873e f6cf d3be
00000030: 59b7 acbc c0d5 6c3d 0459 5f3e 3a90 b93c
00000040: 4bc5 40be 63f4 4abf 76c4 903e efd9 74be
00000050: 9ac4 cd3b d603 523e 2843 f6be 3d18 98bd
00000060: 676c 86be 7b9a fc3e ca45 453c acc7 c5be
00000070: 983f 33bd a368 df3d 7e16 f6be a410 843e
00000080: a6e3 f7be 64de 923e 601f 7fbc c4ef 15be
00000090: 3206 e03e 0197 19bf 39cf 7a3c ce3d febe
000000a0: 99e6 e83c 47d1 b03c 08ad ae3d 6fda a9be
000000b0: 3b3c c43d 9d41 833e 818d 03bf 5c8c ddbd
000000c0: 4810 893d 7c31 133e 9046 05bf f6ef 00bd
000000d0: ae76 80be f84d c0be 43c2 30bf 7a38 d13e
000000e0: 7ecf 8abd 2971 d4be e54d c23e 8bee 3bbe
000000f0: 8463 133c 2584 c93e 5a4c 083f 960e dfbe
00000100: 95aa bb3e 5c36 07bf ed02 90be 9cd4 54be
00000110: 73a9 2abe 4d5d 7e3e 6fb1 00be 4643 e5be
00000120: 8a2f 12be db95 cd3e 553f a0be 3fbf 363d
00000130: c39d a63e 2f1e 08be a4e7 1d3f 68b6 6e3e
00000140: c52c d23d e636 6a3e 1f8b ad3e 50dc dfbd
00000150: a90a 93bd a1b3 b3be 4968 46bf 3885 fdbe
00000160: 2071 b2be 2675 04bd b02d 0a3e 7866 fc3d
00000170: 3c0a e13b 9e2c 84be abc4 1c3e a9fd 35bc
00000180: e3b5 e83e 11a4 b13e f328 2f3f b0ca a0be
00000190: 86fe 3d3f 305f 8ebe d1e5 69be ce83 9dbe
000001a0: a732 323f cf2b 82bc 6797 b8be 780c 2bbe
000001b0: e6e2 723e d7da f83e 5b02 e03e ff2f 19b9
000001c0: 874b 71be d670 4abe 2197 4f3e 56fe 983d
000001d0: 0bcd af3e 87d3 b4be 8947 0d3d 484d 4e3e
000001e0: a6d1 253f 9c17 ffbe e5cc 563e ea2d 0bbe
000001f0: 3904 1abe dc49 023e 8136 8dbe fe40 8c3d
00000200: 3819 a5be 9459 873e 10e6 ddbd 5306 b8be
00000210: 6d2d 6bbc 54fc c0be c471 0d3e 9919 85bd
00000220: 10ba 20bf e473 403e b10a 37be 1ac2 04bf
00000230: 45ef a43d 03a4 5c3d d7f7 143f 8b2b ef3c
00000240: 2c35 0b3d 6b2d 883e e9dc 943e 9384 a23e
00000250: e728 383c 7511 aabe b1c0 71bf 9983 a63e
00000260: 7f7d 93be 9045 3b3d 018c 35bf 9ce8 48be
00000270: 2e1c 15be 5ab9 d1bd 61fe 073f 6959 3fbe
00000280: 9231 f7bd f1fd 71bf 7de4 7abd 77ed c7be
00000290: 1b8a b6bd be2a bfbc 68b0 bd3e 0049 ecbd
000002a0: 5449 533e 66b4 483e 2b02 cebd 9f46 a73e
000002b0: db95 433e 8512 fe3e 1a1e 903f 7ee7 60bf
000002c0: bf78 213d 5447 27be 2acb 21be 0a1c 84be
000002d0: b51d de3e 86f1 523e 51c6 ae3e 7335 f03d
000002e0: 4a30 52bf 34ae 45be c2ff 8dbe 271e afbe
000002f0: e2d1 04bf f00f db3c 829b 0ebf 59b1 6abe
00000300: bbc2 ab3e f126 bc3c 858b 2d3c c9f9 c33d
00000310: 08b6 8fbe faff febe 7c30 763f 4653 87be
00000320: 4e45 2bbe f0cb 613d e3ba 593e 4ee3 683f
00000330: c302 ecbd 648a 2bbf 1194 18bf e7e0 c0be
00000340: 9329 e5be 666e babd d3d1 1abe baaa f13e
00000350: 8364 4b3f 8dff 183e 8ca1 cd3e 98e1 8abd
00000360: 238d a63d 57d1 c3bd 1c4c 083f dcbb 8c3e
00000370: 5921 10bf e060 03bf c3fe 9cbe dd0d 083e
00000380: f8d9 8a3e 882f b8bd 435f 2d3e 6b28 f0bd
00000390: 2056 e03d bb95 e0bc 1645 1b3f 7d76 c2bd
000003a0: 4ada aebe 6563 d3bd d925 aebd 64fc bc3e
000003b0: 321b 86be 2ab3 a23e 14e7 013f b279 96bd
000003c0: 2f7b e2be facc d5be 7fbb 8dbe 95e5 873e
000003d0: 2c44 17bf 2cc4 a8be e739 99bd c445 f4bd
000003e0: f854 2bbe fa04 c1bd 5639 863e 15c0 7bbd
000003f0: 6299 02bf 246b 093d eb69 8abc bea9 103f

network_body._body_endoder.seq_layers.0.bias f4 [128]
-0.011286478 0.028449815 0.040617302 0.10174756 -0.081346266 0.08412808 0.0066562537 -0.05926637
0.019251063 -0.06589282 0.040279556 -0.013347181 0.010936517 -0.022754012 -0.015137828 0.026531547
0.012929394 -0.012998456 0.0037445137 -0.06151952 -0.0702699 0.0019372148 0.0151567105 0.041220177
-0.04559077 -0.006173189 0.033089243 0.017840935 -0.03745044 -0.021339085 0.0035806575 -0.010739944
-0.0015440308 -0.011281408 -0.0032985483 -0.013411535 -0.051154498 -0.045540318 0.028684566 -0.07370479
0.0022833773 0.057909526 0.07496587 0.010477039 -0.006891849 -0.039272975 -0.03273696 0.031579792
0.028301582 -0.040769856 -0.029640744 -0.05135079 0.08813669 0.042005517 -0.08270384 0.011630127
0.009866374 -0.009540423 -0.04964699 -0.08025844 -0.046285234 0.040273502 0.14486171 0.017891683
-0.0116719045 0.027043313 -0.010783955 -0.0465647 -0.011678899 0.0037047644 -0.02637079 0.025597528
-0.04846969 -0.0031734528 -0.0088099055 -0.014754392 -0.04386519 -0.040125262 0.045990627 0.00019125023
0.090364285 0.05114847 0.058825515 0.05255166 -0.0014791272 -0.085236266 0.0011015227 0.008610103
-0.0051562055 -0.060111847 -0.026404455 0.030493546 0.068369344 0.013446867 -0.02069872 0.056289017
0.0791089 0.029991003 0.09544802 -0.025970425 -0.015001148 0.059271913 0.02920976 -0.05786698
0.04905859 -0.00064682396 0.038481474 0.02257088 -0.04010826 -0.026525343 -0.06042058 -0.07543835
0.0822357 0.09529563 -0.010543105 0.04736474 0.05306223 0.040307783 -0.02124617 0.0058014407
-0.029847743 0.010989897 0.016706709 -0.016313568 0.045129757 -0.03696561 -0.050014812 0.02562337
00000000: ebea 38bc 960f e93c 545e 263d 0661 d03d
00000010: df98 a6bd 584b ac3d b41c da3b 4bc1 72bd
00000020: 68b4 9d3c d1f2 86bd 2dfc 243d 22ae 5abc
00000030: 142f 333c 9f66 babc a704 78bc b058 d93c
00000040: cfd5 533c 7af7 54bc 8466 753b e4fb 7bbd
00000050: aae9 8fbd 24ea fd3a da53 783c 7dd6 283d
00000060: 63bd 3abd 7648 cabb 9688 073d 2727 923c
00000070: a265 19bd 4ecf aebc 77a9 6a3b 97f6 2fbc
00000080: 1461 caba a8d5 38bc 752c 58bb 0ebc 5bbc
00000090: 6187 51bd 7c88 3abd e5fb ea3c 89f2 96bd
000000a0: b7a4 153b 8a32 6d3d b587 993d e3a7 2b3c
000000b0: 05d5 e1bb b3dc 20bd 3117 06bd d059 013d
000000c0: b8d8 e73c 4bfe 26bd 25d1 f2bc 3555 52bd
000000d0: 0281 b43d fa0d 2c3d a260 a9bd 4a8c 3e3c
000000e0: 92a6 213c 6f4f 1cbc a45a 4bbd 895e a4bd
000000f0: 9695 3dbd d4f5 243d a156 143e 9491 923c
00000100: 843b 3fbc f089 dd3c 30af 30bc a0ba 3ebd
00000110: da58 3fbc a2cb 723b 8e07 d8bc e8b1 d13c
00000120: 2788 46bd b4f9 4fbb 6c57 10bc 68bc 71bc
00000130: fcab 33bd 635a 24bd ab60 3c3d 588a 4839
00000140: e910 b93d 0f81 513d 06f3 703d 6940 573d
00000150: 46df c1ba 5a90 aebd f860 903a 6411 0d3c
00000160: 63f5 a8bb d737 76bd 284e d8bc 9acd f93c
00000170: 3a05 8c3d 3f50 5c3c 5d90 a9bc 508f 663d
00000180: d903 a23d b1af f53c 407a c33d eebf d4bc
00000190: 60c7 75bc 1bc7 723d 4e49 ef3c ed05 6dbd
000001a0: a9f1 483d 9f8f 29ba c09e 1d3d 91e6 b83c
000001b0: 8f48 24bd ad4b d9bc 927b 77bd 6c7f 9abd
000001c0: 316b a83d 5b2a c33d fdbc 2cbc 8801 423d
000001d0: c857 593d c619 253d 730c aebc 031a be3b
000001e0: 4183 f4bc f80e 343c 82dc 883c 08a4 85bc
000001f0: fbd9 383d 4069 17bd 55dc 4cbd 1ae8 d13c

network_body._body_endoder.seq_layers.2.weight f4 [128, 128]
0.06582518 0.034476753 -0.036536705 -0.041711036 -0.0057446295 -0.08688677 -0.026373852 0.08373152
-0.11513213 -0.0033250973 -0.19200042 0.008256393 0.024128778 -0.08989111 0.00937101 0.015522617
-0.029154675 0.046741378 -0.049251623 -0.008933462 -0.0143433055 -0.16190709 0.046855114 -0.103466526
-0.043867137 0.0055119707 0.006955628 -0.09398194 -0.108478375 -0.023680737 -0.08377654 -0.01760566
-0.036506016 -0.05065287 0.024803411 -0.14327516 0.119707264 0.08009861 -0.049843844 0.13404469
0.18697247 0.06837732 -0.074247 -0.016474536 0.04982313 -0.0076750554 0.10234457 0.006778658
-0.052957118 -0.006583723 0.011407592 -0.065222904 -0.100025065 -0.056257788 -0.10630981 0.06502784
0.039309427 0.124098174 0.00089621864 -0.1500225 0.07062205 -0.14812553 0.19714132 0.018465675
0.03501212 -0.15460733 0.10765105 0.043796275 -0.056733284 -0.10392345 0.046823286 0.0020494952
0.09969425 -0.027559552 -0.05402656 0.03882212 -0.024092825 -0.0012702718 0.13267548 0.06820492
0.15395255 0.0001683336 -0.15471151 -0.011275418 -0.023756085 0.16738854 0.044092312 -0.041684255
-0.024722746 0.0077426983 0.09407069 0.1033667 0.023990862 0.016027294 0.058451008 0.023165487
0.020296684 -0.18031977 0.032780897 -0.13210653 -0.020793794 -0.07019736 0.15401451 0.08625964
-0.032247275 -0.015511616 0.038941756 0.11745602 -0.1459996 0.022006728 -0.07725267 -0.052476764
-0.097309306 -0.24635597 -0.044328224 0.081288286 -0.047917124 -0.11211758 0.18093231 0.13131605
-0.13472758 -0.1553295 -0.028404457 -0.046556268 0.09166621 0.13278157 -0.15751122 -0.14975674
0.06737852 0.14994994 -0.121099554 0.057322383 -0.030469663 -0.112108946 0.08152181 0.21929666
-0.13803478 0.09296364 -0.08417562 -0.03873281 0.03067893 0.1510683 -0.08801964 -0.08068363
0.14825124 -0.017534373 0.020096313 0.06252106 0.02085565 -0.1147463 0.013031825 0.011342317
-0.16814105 -0.039077062 -0.021440303 -0.12497583 0.15067935 -0.058725957 -0.045139167 0.023850631
0.023008453 -0.07400921 -0.103607684 -0.02028606 0.14813447 -0.014766679 0.21957354 -0.087019704
-0.06395375 -0.036988825 0.053786542 -0.24254578 -0.06410574 0.0048164073 0.12004913 0.027219316
0.09332284 0.11248205 -0.124597825 -0.16669591 -0.02033156 0.103911 -0.035282623 -0.1471696
-0.113330305 -0.025954586 0.012378507 0.10123673 -0.009396166 -0.102990575 0.040026847 -0.11676679
0.09325043 -0.16043283 0.031692643 -0.093532264 -0.16435422 0.039798852 -0.11551333 0.006274868
0.035660394 0.06158005 0.044062376 -0.05295055 0.050859537 -0.15766469 -0.10956309 -0.10679008
0.05267849 -0.2234574 -0.0607896 0.071591705 -0.026236992 0.04371905 0.09020319 -0.05283236
0.12051114 -0.14008257 -0.025086924 -0.21858773 -0.002682995 -0.14349985 0.11201979 -0.010488379
-0.008714787 -0.041354727 0.05207722 -0.23698145 -0.10763054 -0.10011733 -0.036534082 -0.02221137
-0.009238663 0.048279986 -0.08732348 0.06275019 -0.05061314 -0.111832 0.14288574 0.00342693
0.06168001 -0.14970557 -0.12368256 0.060742605 -0.1427239 -0.03566019 0.050702833 0.051238794
0.13515101 -0.06036725 0.016815692 0.043405045 0.09719836 -0.069862135 0.0016254234 0.042186856
00000000: 5acf 863d 7f37 0d3d 83a7 15bd 31d9 2abd
00000010: 723d bcbb b1f1 b1bd fa0d d8bc 6e7b ab3d
00000020: 65ca ebbd e0e9 59bb c29b 44be d245 073c
00000030: b7a9 c53c d518 b8bd dd88 193c 9352 7e3c
00000040: c9d5 eebc e373 3f3d 12bc 49bd a85d 12bc
00000050: 2f00 6bbc f9ca 25be 26eb 3f3d 42e6 d3bd
00000060: 07ae 33bd c39d b43b 09ec e33b 9a79 c0bd
00000070: e929 debd 1bfe c1bc 0993 abbd bf39 90bc
00000080: 5587 15bd 6279 4fbd 8630 cb3c b9b6 12be
00000090: 1529 f53d bd0a a43d 0f29 4cbd 0343 093e
000000a0: b675 3f3e 6909 8c3d d00e 98bd 9bf5 86bc
000000b0: 5713 4c3d 087f fbbb 089a d13d 811f de3b
000000c0: 90e9 58bd 45bc d7bb e9e6 3a3c 9693 85bd
000000d0: f1d9 ccbd 916e 66bd f5b8 d9bd 512d 853d
000000e0: ec02 213d 2f27 fe3d 37f0 6a3a 809f 19be
000000f0: 4ba2 903d 38ae 17be 6adf 493e 5445 973c
00000100: de68 0f3d 6251 1ebe 2778 dc3d b963 333d
00000110: 2961 68bd d1d5 d4bd c6c9 3f3d d350 063b
00000120: 802c cc3d 92c4 e1bc f44a 5dbd f103 1f3d
00000130: 515e c5bc 407f a6ba 15dc 073e 05af 8b3d
00000140: bda5 1d3e b582 3039 b26c 1ebe 88bc 38bc
00000150: 1f9c c2bc e767 2b3e 249a 343d 1cbd 2abd
00000160: 5b87 cabc 76b6 fd3b 22a8 c03d ecb1 d33d
00000170: 7c88 c43c ac4b 833c 536a 6f3d 8cc5 bd3c
00000180: 3b45 a63c bfa5 38be 4345 063d ef46 07be
00000190: bf57 aabc a2c3 8fbd fbb5 1d3e e5a8 b03d
000001a0: b815 04bd 6f24 7ebc 6481 1f3d c88c f03d
000001b0: eb80 15be 7447 b43c a636 9ebd e0f1 56bd
000001c0: 1a4a c7bd bd44 7cbe 8391 35bd 797a a63d
000001d0: bf44 44bd e79d e5bd 5246 393e b777 063e
000001e0: 07f6 09be b20e 1fbe 77b0 e8bc c9b1 3ebd
000001f0: 7ebb bb3d e4f7 073e 9f4a 21be d559 19be
00000200: c0fd 893d 7a8c 193e 0b03 f8bd e0ca 6a3d
00000210: 849b f9bc 6099 e5bd e8f4 a63d 4e8f 603e
00000220: fd58 0dbe b963 be3d 4464 acbd 4ca6 1ebd
00000230: 6152 fb3c a6b1 1a3e a443 b4bd 763d a5bd
00000240: 2ccf 173e 3fa4 8fbc 06a1 a43c 0b0b 803d
00000250: 78d9 aa3c 1c00 ebbd 7083 553c 20d5 393c
00000260: 2b2d 2cbe 450f 20bd 93a3 afbc 54f3 ffbd
00000270: b04b 1a3e a18a 70bd d9e3 38bd 6662 c33c
00000280: 397c bc3c 2492 97bd 4430 d4bd f42e a6bc
00000290: 90b0 173e f1ef 71bc e3d7 603e 6337 b2bd
000002a0: 2ffa 82bd 9881 17bd 474f 5c3d ec5d 78be
000002b0: df49 83bd f4d2 9d3b 51dc f53d 0bfb de3c
000002c0: 0c20 bf3d fd5c e63d 252d ffbd 55b2 2abe
000002d0: 5f8e a6bc 4acf d43d 8384 10bd a1b3 16be
000002e0: b819 e8bd b69e d4bc 39cf 4a3c 3455 cf3d
000002f0: 60f2 19bc b9ec d2bd 31f3 233d 6d23 efbd
00000300: 15fa be3d 8148 24be 25d0 013d d88d bfbd
00000310: 794c 28be 1f04 233d 4192 ecbd 689d cd3b
00000320: a210 123d 5d3b 7c3d c07a 343d ade2 58bd
00000330: 1752 503d da72 21be 9d62 e0bd c2b4 dabd
00000340: 66c5 573d 04d2 64be 84fe 78bd ac9e 923d
00000350: f6ee d6bc bf12 333d 73bc b83d bf66 58bd
00000360: 8bce f63d ce71 0fbe 1883 cdbc 76d5 5fbe
00000370: 30d5 2fbb a0f1 12be a26a e53d 73d7 2bbc
00000380: 77c8 0ebc 9363 29bd ec4e 553d 44ab 72be
00000390: 676d dcbd 510a cdbd c3a4 15bd 9ef4 b5bc
000003a0: c35d 17bc 3cc1 453d a7d6 b2bd 2c83 803d
000003b0: b94f 4fbd 2d08 e5bd a450 123e 5896 603b
000003c0: 2ea4 7c3d 6b4c 19be 484d fdbd 3dcd 783d
000003d0: 3726 12be 6b10 12bd c6ad 4f3d c5df 513d
000003e0: 0765 0a3e a643 77bd 10c1 893c 7dc9 313d
000003f0: ef0f c73d e113 8fbd 290c d53a 20cc 2c3d

network_body._body_endoder.seq_layers.2.bias f4 [128]
-0.0077889585 -0.030781936 0.07581517 -0.010606012 -0.017672079 0.0029283483 0.030119872 0.02614946
-0.026578601 0.0005219411 -0.06161244 0.019857455 0.0008049559 0.01610112 -0.043384045 0.0058016195
-0.013012804 -0.023957662 -0.00998947 0.02661807 0.005935528 -0.0068258396 -0.0070754304 -0.03827831
0.019951683 0.02063156 0.05454934 -0.0015196257 -0.03531581 0.101000234 -0.014808869 0.020955108
0.043565765 0.006942464 0.0037523268 0.023903487 -0.058542304 -0.007286311 0.004422853 -0.011099645
0.020924637 0.019685002 0.017059127 0.002163184 -0.014321983 0.05586746 0.059510656 -0.010958028
0.012987269 -0.05775746 0.038489457 0.037079707 -0.0256172 0.004948401 0.09459896 0.075006194
0.015768519 0.005004645 -0.007890186 0.03354749 0.07512177 0.07019286 -0.006623377 -0.018075967
0.0069250856 -0.0043002684 0.02003675 0.066896275 0.04086044 0.0044565853 -0.0046127955 0.004964719
-0.01971713 0.026675628 0.027128229 0.05256165 -0.10487151 0.002727758 0.019457467 -0.053496413
0.010990823 -0.018332193 -0.014835499 0.016248599 -0.0042935805 0.0050570145 -0.0579225 -0.06690221
-0.009863339 -0.0869113 0.041625135 0.04885508 0.051018346 0.12016371 0.04987386 0.04724728
0.07815466 0.029373668 -0.012485846 -0.0053345133 0.048748884 0.040762004 -0.018436858 0.0018745877
0.037039664 0.007427695 0.019081855 0.029542493 0.03268442 -0.018601527 0.027144443 0.055386107
-0.023624567 -0.001551403 0.006207549 0.026520219 -0.035352327 -0.00546478 0.0034062795 -0.042400513
-0.0043600597 0.026655732 -0.02631948 0.020230712 0.02474532 0.026892299 0.043823183 0.0076907873
00000000: 853a ffbb 662a fcbc fc44 9b3d d7c4 2dbc
00000010: 09c5 90bc 88e9 3f3b f3bd f63c 6437 d63c
00000020: 5ebb d9bc e0d2 083a 535d 7cbd 1aac a23c
00000030: ad03 533a 7fe6 833c 78b3 31bd 831b be3b
00000040: a833 55bc dc42 c4bc e0aa 23bc 240e da3c
00000050: d17e c23b 4bab dfbb 03d9 e7bb b8c9 1cbd
00000060: b671 a33c 8403 a93c 216f 5f3d 2d2e c7ba
00000070: 50a7 10bd 36d9 ce3d e6a0 72bc 0caa ab3c
00000080: 0472 323d 9c7d e33b 99e9 753b 3fd1 c33c
00000090: 0eca 6fbd 02c2 eebb 94ed 903b 49db 35bc
000000a0: 256a ab3c 7142 a13c 95bf 8b3c 35c4 0d3b
000000b0: c0a6 6abc 47d5 643d 72c1 733d 4d89 33bc
000000c0: 8ec8 543c 1693 6cbd 1fa7 1d3d e4e0 173d
000000d0: 2adb d1bc 3226 a23b 19bd c13d d99c 993d
000000e0: fb2c 813c 01fe a33b d745 01bc 1869 093d
000000f0: 71d9 993d 46c1 8f3d ea08 d9bb 0d14 94bc
00000100: d4eb e23b 44e9 8cbb 1c24 a43c ea00 893d
00000110: 475d 273d 8c08 923b ef26 97bb 15af a23b
00000120: d285 a1bc d986 da3c 053c de3c e24a 573d
00000130: e0c6 d6bd 2fc4 323b 4465 9f3c 0e1f 5bbd
00000140: da12 343c 652d 96bc 9810 73bc c81b 853c
00000150: 2ab1 8cbb 50b5 a53b 2540 6dbd 0704 89bd
00000160: d899 21bc 8dfe b1bd 1e7f 2a3d 441c 483d
00000170: 9df8 503d 6418 f63d 8848 4c3d 5d86 413d
00000180: 8d0f a03d 0ca1 f03c 6f91 4cbc 24cd aebb
00000190: e9ac 473d 0ff6 263d e508 97bc bab4 f53a
000001a0: e7b6 173d 0664 f33b 8d51 9c3c 1903 f23c
000001b0: 19e0 053d 3b62 98bc 065e de3c 8bdc 623d
000001c0: 4f88 c1bc 7258 cbba b268 cb3b ee40 d93c
000001d0: 9acd 10bd e611 b3bb e33b 5f3b 29ac 2dbd
000001e0: d5de 8ebb 1f5d da3c f39b d7bc e1ba a53c
000001f0: b3b6 ca3c 3d4d dc3c f07f 333d 0003 fc3b

action_model._continuous_distribution.log_sigma f4 [1, 2]
-0.084983855 -0.1530626
00000000: 040c aebd 71bc 1cbe

action_model._continuous_distribution.mu.weight f4 [2, 128]
0.0073651513 0.016629549 0.121350706 -0.013357893 -0.06264005 0.00444392 0.013339693 0.058872037
0.005952527 0.008283927 -0.03847224 -0.059712715 -0.022824291 0.025509378 -0.027891887 0.034849502
-0.07242095 -0.10975247 0.012476027 -0.046247777 -0.06701679 -0.054044794 0.009817899 -0.043221954
0.036292445 -0.040405773 0.0063776462 0.04451224 -0.021859169 0.13179609 -0.021837667 -0.02387903
-0.06744416 0.027127612 0.032417394 -0.053284783 -0.048012 -0.08623655 -0.042612273 -0.06018868
0.029087566 0.00016278865 0.037233405 -0.0056594308 -0.048494056 0.029895157 0.06644272 0.009526649
0.049370535 -0.04340197 0.06861398 0.05481441 -0.014487463 -0.08934481 0.040367436 0.090000235
-0.06549349 -0.020322334 -0.06604716 0.020331256 0.11947154 0.055233344 0.04361563 0.018839492
-0.10124554 -0.07662782 0.027666934 0.031089464 -0.046271734 -0.02867931 -0.035598 0.020567942
0.026267687 0.053188823 0.036165833 0.08117089 -0.06772348 0.012141032 -0.039194323 -0.018583545
-0.041511063 -0.06927351 -0.09801469 0.035848863 -0.0069679935 -0.0057080947 0.006646969 -0.01726628
0.041775145 -0.016757624 0.01848639 0.017225217 0.06424006 0.036618005 0.05562644 0.041381232
0.10548948 -0.07950451 0.020566083 -0.037475847 0.020575246 0.06315619 -0.042196468 -0.055263814
0.013839919 -0.047673594 -0.05840091 0.028919242 0.04709869 -0.10367104 0.03316663 0.02403112
0.001115867 0.053510606 0.028403949 0.048972677 -0.045401808 -0.00064868276 -0.081591 -0.07470264
-0.089933366 0.021069964 -0.03475567 0.030263467 0.04908129 0.03548846 0.03868354 0.030531714
-0.061046053 0.033369247 -0.04174486 0.04727787 0.004555462 0.06376288 -0.0537489 0.039440215
0.023162669 -0.013542 0.039773617 -0.038366668 -0.06374087 0.017031064 -0.007447778 -0.011912103
0.020341503 -0.009198881 0.022927416 -0.06865131 -0.058758616 -0.030530997 0.009389904 -0.013716342
0.05397582 -0.029535381 0.005808902 0.007393157 0.03466718 -0.022873655 0.08045818 0.11315332
-0.07440139 0.045538306 0.03582909 -0.06005213 0.022786623 -0.031290743 -0.06517803 -0.04003667
0.08992403 0.076585405 0.0050442507 -0.06265495 -0.03590145 0.058648627 -0.01908918 0.050590064
0.03150529 0.0038802724 0.0402934 0.02936604 0.052779723 0.021233166 -0.045661464 -0.049917165
-0.091161765 -0.04473758 -0.06269719 0.026291966 -0.020617278 0.095950514 0.008563505 0.04730163
-0.06459407 -0.012283481 0.042237386 -0.042313926 -0.06981217 -0.08322347 0.07302619 0.010371862
0.049064502 0.007363266 0.07095693 0.020829042 0.037431337 0.07976242 -0.04473926 0.007711455
-0.07841121 0.023180488 -0.02313201 -0.0035320644 -0.013698614 0.064845994 0.00075907604 0.00737691
0.007947427 0.022859113 -0.09057154 0.0065790666 -0.032615025 -0.13548405 0.004064176 -0.0025152296
-0.03071819 0.0029095686 0.051398765 -0.03571623 -0.04905952 0.0018219523 -0.04871001 -0.053132184
-0.04312094 -0.05665093 -0.044099994 0.019394286 -0.053524397 0.0019629558 0.059091646 -0.088853195
-0.048736386 0.03612599 0.064117655 -0.04706386 -0.017036516 0.035763912 -0.013246224 0.052777823
-0.028722852 -0.027404984 0.0060556075 0.044184074 -0.047072805 0.015504454 0.012715974 -0.087025404
00000000: 5e57 f13b b13a 883c b886 f83d 10db 5abc
00000010: 6d49 80bd 4e9e 913b ba8e 5a3c ce23 713d
00000020: 6a0d c33b 4fb9 073c 1195 1dbd 5295 74bd
00000030: 02fa babc 0bf9 d03c 877d e4bc 5abe 0e3d
00000040: 6f51 94bd e7c5 e0bd 4068 4c3c 4f6e 3dbd
00000050: 1940 89bd 135e 5dbd 41db 203c 8109 31bd
00000060: 63a7 143d 8680 25bd 93fb d03b 7752 363d
00000070: 0012 b3bc 8ef5 063e e8e4 b2bc f59d c3bc
00000080: 2a20 8abd ba3a de3c 1ac8 043d 2541 5abd
00000090: 3ba8 44bd ca9c b0bd 358a 2ebd 6888 76bd
000000a0: 0c49 ee3c 3fb2 2a39 0e82 183d bf72 b9bb
000000b0: b4a1 46bd b0e6 f43c 1f13 883d a915 1c3c
000000c0: c238 4a3d 44c6 31bd 7d85 8c3d 1385 603d
000000d0: d35c 6dbc 69fa b6bd 5358 253d 0b52 b83d
000000e0: 7321 86bd 067b a6bc bc43 87bd bc8d a63c
000000f0: 7fad f43d 5c3c 623d 4ea6 323d 4755 9a3c
00000100: d259 cfbd 0cef 9cbd c4a5 e23c 55af fe3c
00000110: 6e87 3dbd dff0 eabc 35cf 11bd 1a7e a83c
00000120: 552f d73c 86dc 593d a022 143d ec3c a63d
00000130: 9cb2 8abd 2eeb 463c 3a8a 20bd 853c 98bc
00000140: 8107 2abd 45df 8dbd edbb c8bd 42d6 123d
00000150: c453 e4bb f80a bbbb d1ce d93b 0372 8dbc
00000160: 6a1c 2b3d 4947 89bc c570 973c e61b 8d3c
00000170: 4b90 833d c3fc 153d 8dd8 633d 5e7f 293d
00000180: de0a d83d 43d3 a2bd 347a a83c 4680 19bd
00000190: 6b8d a83c 0858 813d 34d6 2cbd 4f5c 62bd
000001a0: d4c0 623c 6345 43bd cb35 6fbd 0ce8 ec3c
000001b0: 8eea 403d 7b51 d4bd bbd9 073d e9dc c43c
000001c0: 4942 923a f02d 5b3d 66af e83c 9397 483d
000001d0: 3ff7 39bd 5d0c 2aba 2f19 a7bd b3fd 98bd
000001e0: fc2e b8bd eb9a ac3c f65b 0ebd 17eb f73c
000001f0: 7609 493d 595c 113d a272 1e3d a51d fa3c
00000200: 6d0b 7abd 31ae 083d a9fc 2abd 71a6 413d
00000210: fc45 953b 1d96 823d ce27 5cbd 108c 213d
00000220: a3bf bd3c 44df 5dbc a9e9 223d 5e26 1dbd
00000230: 938a 82bd bb84 8b3c 7d0c f4bb fb2a 43bc
00000240: 39a3 a63c e7b6 16bc 47d2 bb3c 0f99 8cbd
00000250: e0ac 70bd 241c fabc 1dd8 193c 82ba 60bc
00000260: c015 5d3d 2ff4 f1bc 9a58 be3b 4c42 f23b
00000270: 2cff 0d3d 8861 bbbc 42c7 a43d eebc e73d
00000280: c25f 98bd 6086 3a3d 86c1 123d 39f9 75bd
00000290: 03ab ba3c b92a 00bd 0f7c 85bd 7efd 23bd
000002a0: 172a b83d cfd8 9c3d 3e4a a53b 3d51 80bd
000002b0: 660d 13bd 8b39 703d e960 9cbc 8737 4f3d
000002c0: b10b 013d 2b4c 7e3b b10a 253d 0d91 f03c
000002d0: 8d2f 583d 2df1 ad3c 8407 3bbd f175 4cbd
000002e0: 05b3 babd c13e 37bd 6267 80bd 4062 d73c
000002f0: 91e5 a8bc b481 c43d f14d 0c3c 5bbf 413d
00000300: e549 84bd a740 49bc 1c01 2d3d 5e51 2dbd
00000310: aff9 8ebd 1171 aabd c18e 953d beee 293c
00000320: dcf7 483d 8d47 f13b de51 913d aba1 aa3c
00000330: 9a51 193d 7b5a a33d 8440 37bd 60b0 fc3b
00000340: 0e96 a0bd 02e5 bd3c 577f bdbc 357a 67bb
00000350: 2770 60bc facd 843d bbfc 463a 02ba f13b
00000360: ed35 023c 0943 bb3c 927d b9bd 3695 d73b
00000370: 5597 05bd 55bc 0abe c82c 853b 8dd6 24bb
00000380: b7a4 fbbc 76ae 3e3b 8387 523d 2e4b 12bd
00000390: a3f2 48bd 93ce ee3a 2684 47bd 22a1 59bd
000003a0: 959f 30bd ce0a 68bd 32a2 34bd c4e0 9e3c
000003b0: 663c 5bbd efa4 003b 150a 723d aaf8 b5bd
000003c0: ce9f 47bd d9f8 133d 1e50 833d 09c6 40bd
000003d0: 2a90 8bbc 2e7d 123d b106 59bc 8f2d 583d
000003e0: 304c ebbc 6b80 e0bc 1e6e c63b 5cfa 343d
000003f0: 6acf 40bd 6506 7e3c a956 503c 603a b2bd

action_model._continuous_distribution.mu.bias f4 [2]
0.0477399 -0.026641108
00000000: ea8a 433d 743e dabc
