results/RollerBall/RollerBall/RollerBall-0.pt (torch, 151351 bytes, 12 tensors)

network_body._body_endoder.seq_layers.0.weight f4 [128, 8]
00000000: 5d24 27bf 84dd 1ebf 7efd c7bd 549b 76be
00000010: d219 293e 0579 b1bd 4cf7 223f 8a27 953d
00000020: 3c78 973e 44fd 1ebe 6f75 8e3e d299 b1be
00000030: 6771 4cbd 655f 6a3d d0bf 6d3e 562c e6b9
00000040: 3913 17be 22ad 56bf 7a43 873e 7a62 8bbe
00000050: beef 0ebd cbf7 cb3d c353 06bf 6a7f 11be
00000060: bfc0 73be f299 c63e cf6f 853c 34d2 b2be
00000070: 8aad 16be db05 f43d 6726 efbe f1aa 343e
00000080: b21a 14bf 70a3 bc3e ff11 67bd e909 11be
00000090: 08bd 043f 9b66 2abf 6710 5f3d 9422 f7be
000000a0: e7b2 8d3d 2d79 8bbd 6b81 ba3d d67a 81be
000000b0: fc0b 123c 415f 833e b2c6 f4be 9179 13be
000000c0: 5e7e c93d 07d0 093e bc98 07bf 246e 3c3d
000000d0: f079 89be 34df b5be eead 2ebf 28e1 c13e
000000e0: e638 d3bd 10ad b4be e8dd d13e b54a 39be
000000f0: 87e2 913d 52ba c83e 397e 033f afaa cdbe
00000100: be8a b43e a085 0bbf 30c5 84be 6b19 3bbe
00000110: d49b 44be 99fe 663e 541a 90bd f90d c0be
00000120: efc7 41be 6575 f13e 868c 88be a6bf 06bc
00000130: 20a2 ca3e 2008 0fbe ca29 193f 5242 9e3e
00000140: 058c 013e 68dd 383e 3ce7 b03e dc30 acbd
00000150: d599 eebd 6b67 9fbe f774 36bf 7252 09bf
00000160: 0b2b bebe 6bd0 97bc ddf9 b63d 2fa8 a93d
00000170: 4d60 1b3c 997e 94be 671f c53d b090 493b
00000180: ae9c dd3e 2e7c a93e e45d 353f 9024 80be
00000190: 552e 3a3f 9b35 7fbe e586 7bbe c9e9 b6be
000001a0: d0d8 363f 7bdf c23b 32a3 d7be 004f a5bd
000001b0: d2c0 873e 861a fc3e 6be4 f03e 2138 bcbc
000001c0: f10a 89be 0c06 3dbe c896 523e d7d1 cf3d
000001d0: 60a0 b63e 9fe1 acbe a093 d0bc 7270 c53d
000001e0: 0b8a 1b3f cc4e 07bf ca60 203e 820d cfbd
000001f0: 89dd 32be a007 223e e94e abbe 0645 7f3a
00000200: 0813 a7be 81db 7f3e d644 e6bd d03d aebe
00000210: bf94 f3bc b7fd c1be b433 0e3e 3b26 ad3c
00000220: 97ac 25bf 5ebb 4c3e 6c16 2ebd 8ddc 08bf
00000230: 8889 cb3d 8fe2 d53d c9a6 243f dbe9 513d
00000240: 7c7d f13d 2984 823e 5859 923e f4aa 9d3e
00000250: 1298 20bb e282 95be c9c2 6fbf d375 933e
00000260: 8a66 98be 50c8 d73d e6c3 4dbf 94bf ebbd
00000270: 2d43 babd 2b61 cabd f024 1c3f 3c9e 1cbe
00000280: 103b bebd dabd 5ebf ad00 41bc 7fa5 94be
00000290: cb74 aabc be8b f73c edab db3e ebd2 b2bd
000002a0: a078 773e 68d9 483e 9a8f fbbd 1974 883e
000002b0: 918d 3c3e b2dc 003f 5ca7 8b3f 16f7 51bf
000002c0: 9803 883d 0aa2 37be e8db f7bd 1a31 4bbe
000002d0: 97b7 d83e 2811 543e 28fa db3e 35aa 1e3e
000002e0: 0d42 44bf dc1f 73be d983 88be 12c2 aebe
000002f0: de00 0fbf 3f45 4e3d eb18 00bf ed90 91be
00000300: d278 b73e c133 8f3d 2e86 24bc 96c8 013d
00000310: bb53 77be 890b 0dbf c3c1 713f a28f 4fbe
00000320: bf14 62be 9803 7a3d b8f1 6c3e 502a 643f
00000330: b20b e4bd 9a13 23bf 0935 19bf 0df5 79be
00000340: a1b2 f4be cc8e f6bd 91da 22be b8d0 d03e
00000350: 967f 413f a200 a33d 2abb b03e 29f1 b7bc
00000360: 3b6b 983d 734b f3bd 92c2 053f 7ffe 8f3e
00000370: d9ab 14bf e73d eebe 6ea2 9abe bc42 f83d
00000380: 22b4 833e 71ff 61bd 941f 063e 81ef 41bd
00000390: bfe1 193e fff1 b93a 2d73 213f af20 a4bd
000003a0: 43e4 b5be 6f4f a2bd 1b32 65bd f71d b03e
000003b0: 5d7b 7cbe b307 853e c48e 023f 15f3 6abd
000003c0: a1bd eabe f4df d8be 1e85 91be b96c 933e
000003d0: 5042 19bf de07 99be 756c 05bd 1160 91bd
000003e0: 8733 1bbe b0a2 b0bd 31a6 9e3e cb64 583c
000003f0: 4f1e febe 0279 583d 57a3 e83c dbed 0b3f
-0.6528986 -0.62056756 -0.09765147 -0.2408269 0.16513756 -0.08665661 0.63658595 0.07282932
0.2958392 -0.155263 0.2782397 -0.34687668 -0.049912836 0.05721988 0.23217702 -0.0004390205
-0.14753427 -0.8385793 0.26418668 -0.2722357 -0.034896605 0.09959372 -0.5247156 -0.14208761
-0.23803996 0.38789326 0.016288666 -0.34925997 -0.14714637 0.11915179 -0.46708986 0.17643334
-0.57853234 0.36843443 -0.056413647 -0.14163937 0.5185094 -0.66562814 0.054459002 -0.4826857
0.069188885 -0.06810222 0.09106716 -0.2528903 0.00891399 0.2565861 -0.47807842 -0.14401843
0.09838556 0.13458262 -0.5296743 0.046003476 -0.26850843 -0.35521853 -0.68234146 0.37867093
-0.10313587 -0.35288286 0.40989614 -0.18094905 0.07123285 0.3920465 0.51364475 -0.40169284
0.35262102 -0.5450077 -0.25931692 -0.18271415 -0.19200069 0.22558059 -0.07036272 -0.3751066
-0.18923925 0.47159877 -0.2666971 -0.0082244035 0.39576817 -0.13967943 0.5982939 0.30909973
0.1265107 0.1805321 0.34551418 -0.08407757 -0.11650435 -0.3113359 -0.71272224 -0.53641427
-0.37142214 -0.018531999 0.089343764 0.082840316 0.009483409 -0.29002836 0.0962513 0.0030756406
0.432836 0.33102554 0.7084639 -0.25027895 0.7272695 -0.24922793 -0.24563177 -0.3572524
0.7142458 0.005947051 -0.42116696 -0.08071709 0.26514298 0.49238986 0.4704927 -0.022975983
-0.2676616 -0.18459338 0.20565331 0.10147446 0.3566923 -0.33765885 -0.025461018 0.09640588
0.6075751 -0.5285461 0.15661922 -0.10109998 -0.17467321 0.15823221 -0.3345864 0.00097377633
-0.32631707 0.24986078 -0.11243598 -0.34031534 -0.029734014 -0.37888882 0.1388691 0.021136394
-0.64716476 0.1999335 -0.042501852 -0.53461534 0.099383414 0.10443603 0.64316994 0.051248413
0.11791512 0.25491455 0.2858379 0.3079449 -0.0024504703 -0.29201418 -0.93656594 0.2880083
-0.2976573 0.105362535 -0.8037704 -0.1151115 -0.09094844 -0.098818146 0.6099386 -0.15294737
-0.09288609 -0.8700844 -0.011779946 -0.29032513 -0.020807644 0.030218001 0.42904606 -0.08731636
0.24167109 0.19614184 -0.12283249 0.26651075 0.18413378 0.50336754 1.0910449 -0.8201765
0.066413105 -0.17932907 -0.12102491 -0.1984295 0.42327568 0.2070967 0.42964292 0.15494616
-0.76663285 -0.23742622 -0.26663092 -0.3413244 -0.558607 0.050359007 -0.5003802 -0.28430882
0.35834366 0.06992293 -0.010041757 0.031685434 -0.24153034 -0.55095726 0.9443628 -0.20269635
-0.22078227 0.061038584 0.23139083 0.89127064 -0.11135043 -0.63701785 -0.5984655 -0.24409886
-0.47792533 -0.12038955 -0.15903689 0.4078424 0.75585306 0.07959105 0.34517795 -0.022453861
0.074423276 -0.11879625 0.52250016 0.28123853 -0.5807472 -0.46531603 -0.3020205 0.121221036
0.25723368 -0.05517525 0.13097984 -0.04734755 0.15027522 0.00141865 0.6306637 -0.080140464
-0.35525712 -0.07925307 -0.055955987 0.3439786 -0.24656434 0.25982437 0.50999093 -0.057360727
-0.458478 -0.42358363 -0.28421873 0.28793886 -0.5986681 -0.29888815 -0.032574136 -0.07098401
-0.15156375 -0.0862478 0.3098617 0.013207625 -0.496325 0.052849777 0.028398199 0.54659814

network_body._body_endoder.seq_layers.0.bias f4 [128]
00000000: 0000 0000 0000 0000 0000 0000 0000 0000
00000010: 0000 0000 0000 0000 0000 0000 0000 0000
00000020: 0000 0000 0000 0000 0000 0000 0000 0000
00000030: 0000 0000 0000 0000 0000 0000 0000 0000
00000040: 0000 0000 0000 0000 0000 0000 0000 0000
00000050: 0000 0000 0000 0000 0000 0000 0000 0000
00000060: 0000 0000 0000 0000 0000 0000 0000 0000
00000070: 0000 0000 0000 0000 0000 0000 0000 0000
00000080: 0000 0000 0000 0000 0000 0000 0000 0000
00000090: 0000 0000 0000 0000 0000 0000 0000 0000
000000a0: 0000 0000 0000 0000 0000 0000 0000 0000
000000b0: 0000 0000 0000 0000 0000 0000 0000 0000
000000c0: 0000 0000 0000 0000 0000 0000 0000 0000
000000d0: 0000 0000 0000 0000 0000 0000 0000 0000
000000e0: 0000 0000 0000 0000 0000 0000 0000 0000
000000f0: 0000 0000 0000 0000 0000 0000 0000 0000
00000100: 0000 0000 0000 0000 0000 0000 0000 0000
00000110: 0000 0000 0000 0000 0000 0000 0000 0000
00000120: 0000 0000 0000 0000 0000 0000 0000 0000
00000130: 0000 0000 0000 0000 0000 0000 0000 0000
00000140: 0000 0000 0000 0000 0000 0000 0000 0000
00000150: 0000 0000 0000 0000 0000 0000 0000 0000
00000160: 0000 0000 0000 0000 0000 0000 0000 0000
00000170: 0000 0000 0000 0000 0000 0000 0000 0000
00000180: 0000 0000 0000 0000 0000 0000 0000 0000
00000190: 0000 0000 0000 0000 0000 0000 0000 0000
000001a0: 0000 0000 0000 0000 0000 0000 0000 0000
000001b0: 0000 0000 0000 0000 0000 0000 0000 0000
000001c0: 0000 0000 0000 0000 0000 0000 0000 0000
000001d0: 0000 0000 0000 0000 0000 0000 0000 0000
000001e0: 0000 0000 0000 0000 0000 0000 0000 0000
000001f0: 0000 0000 0000 0000 0000 0000 0000 0000
0.0 0.0 0.0 0.0 0.0 0.0 0.0 0.0
0.0 0.0 0.0 0.0 0.0 0.0 0.0 0.0
0.0 0.0 0.0 0.0 0.0 0.0 0.0 0.0
0.0 0.0 0.0 0.0 0.0 0.0 0.0 0.0
0.0 0.0 0.0 0.0 0.0 0.0 0.0 0.0
0.0 0.0 0.0 0.0 0.0 0.0 0.0 0.0
0.0 0.0 0.0 0.0 0.0 0.0 0.0 0.0
0.0 0.0 0.0 0.0 0.0 0.0 0.0 0.0
0.0 0.0 0.0 0.0 0.0 0.0 0.0 0.0
0.0 0.0 0.0 0.0 0.0 0.0 0.0 0.0
0.0 0.0 0.0 0.0 0.0 0.0 0.0 0.0
0.0 0.0 0.0 0.0 0.0 0.0 0.0 0.0
0.0 0.0 0.0 0.0 0.0 0.0 0.0 0.0
0.0 0.0 0.0 0.0 0.0 0.0 0.0 0.0
0.0 0.0 0.0 0.0 0.0 0.0 0.0 0.0
0.0 0.0 0.0 0.0 0.0 0.0 0.0 0.0

network_body._body_endoder.seq_layers.2.weight f4 [128, 128]
00000000: e6ab 353d 0a3e 933d d7cd ac3c 8f55 febc
00000010: e29b 223d af14 0ebd 5618 37bd 53c5 303d
00000020: e86b f9bd 8e3a 13bb 5220 9fbd 0841 2e3d
00000030: 45af bd3d 336f 8dbd e0fd 623d 6bcb 6f3c
00000040: df2a 65bc f49d 533c c089 ebbb d271 acbc
00000050: a718 1fbd 3058 0dbe e9a1 1b3c e19c 7abd
00000060: 98f7 723d f905 b03d 7933 d5bc 4d13 11bd
00000070: 69e8 8bbd e6a3 b1bd 29d9 b1bd f27e 8bbd
00000080: 463d ad3c 9f60 2ebd a88e 573c 844f 07be
00000090: 772e ce3d b656 bd3c ba5d c43c 03d4 f93d
000000a0: 9bb2 3a3e 6737 ab3a 38f4 1c3c b5ec c8bc
000000b0: 11cd 93bc 9838 13bd fc2a 143e 9c1f 933c
000000c0: e3c8 83bc a17a 3a3d 7c35 00bc 217d 30bd
000000d0: 084c e1bc c871 a8bd 9341 11be 760c 9d3d
000000e0: db58 40bd 64e2 be3d 98f2 503b 1bec 23be
000000f0: 0a1b 9a3d 08fe c7bd 6135 133e e968 943d
00000100: a5f8 d33c 8312 d0bd 363d d43d 240f 483d
00000110: 76e2 85bd 7ea8 f7bd 9092 413d 00da 883d
00000120: 81d5 093e de2e b73c 86a2 b9bd bb15 a13c
00000130: 7dd6 aabc feb5 31bd efca 213e ff6c 573d
00000140: a6f6 b53d 031d 033d aed2 9cbd 4c23 613d
00000150: b43d efbd fe65 3d3e 82be 933d eccf f6bb
00000160: 9f26 733b f3c4 943a 3513 ea3d 43bb 333c
00000170: 7dc5 ad3d d523 74ba 529d 833d feee 943c
00000180: 6817 dc3d 942b a6bd 9cdb 0fbb 0f27 83bd
00000190: 4778 edbc e711 9d3c a425 fb3d 0e5c 343d
000001a0: 5a76 9bbc e1b4 e7bc 8986 9c3d 3b35 ca3c
000001b0: 0e04 31be 5009 603d fff5 e5bd 5860 8dbd
000001c0: baf4 2ebe ebcc 34be ee45 4abd 8969 473d
000001d0: bc1b dbbc cae6 fdbd aa14 293e e4c3 113d
000001e0: 0b15 82bd 10a1 a6bd e97f 36bd f7ef bfbb
000001f0: ae13 d03d 9b8e d93d eb61 16be 6e57 46be
00000200: 8878 d13d 236f ce3d 3fad d8bd 35f6 843d
00000210: cb2c 4ebc 4124 d2bd 5387 cc3d 6705 5c3e
00000220: 4291 08be 767d f43d 4302 8dbd 3028 8d3a
00000230: 478e 8a3b 40e7 043e dee5 6fbd 225d f4bd
00000240: 8562 123e fc7c 7aba 867e 233d bb71 cf3d
00000250: e3dd 72bc 7a70 efbd 7594 abbc 252d ab3d
00000260: a976 19be b9b6 1c3d b95b c03d dd51 debd
00000270: c83c 0a3e c75b 313c 22da 85b8 44e2 dbbb
00000280: 8069 7e3c fe97 68bd 14e1 1ebd 6c90 f3bc
00000290: 0194 153e 1c80 17bd 64f2 613e 1550 88bd
000002a0: 1a77 97bd 5aac 4d3d 22cc 883d e6aa 60be
000002b0: 94f8 9bbd 2ddb 713d 6cc9 e63d 039e bc3d
000002c0: a0cd 653d 733d 3a3e ac3e debd f92d 04be
000002d0: 5330 33bc 6693 943d c833 7abd ca2d 08bd
000002e0: 7f3e a9bd 6025 493c 6254 d03c e03c ff3d
000002f0: c60f 07bd 3feb b5bd c45c e6bc 433a f0bd
00000300: b1ff 163e ef9e ccbd ddd1 ba3c 25ca b23b
00000310: d179 e0bd 46fd 4d3d 658d c8bd c6f7 113d
00000320: 9ed8 4f3d 0cc0 383e 5f12 133d cad6 64bd
00000330: cfdd 813b 2a4f 0abe f0bd f7bd f95e 1fbc
00000340: f92e 8f3d e0fd 06be 9443 97bd d3e2 483d
00000350: f37d 21bd bd82 bf3d c1ad 703d 209f 8b3b
00000360: 4d75 893d aad1 0fbe eada 7cba c61e 65be
00000370: 3590 88bc c88b 17be ccd0 023e 5b92 a73c
00000380: c849 c1bc a96b 823c 6ceb 873d bf1e 23be
00000390: e976 9dbd 8c64 cbbd 5ec5 5fbc 42f2 fcbc
000003a0: 35cc 4f3d 8f3c b63c 22fc b2bd af4a e33c
000003b0: 918c 28bd 8838 43bd bd5e 2c3e d29c 7ebc
000003c0: 6727 c13c 2da0 26be 012d 0abc 7769 543d
000003d0: ffdd 0bbe 08e6 49bd 3c6e 6e3d 9557 093d
000003e0: 19e9 0e3e 4603 7fbd 7b54 29bc e171 2c3d
000003f0: 24f7 b93d 57cf 65bc 6e76 883d 0a00 ddba
0.04435339 0.071895674 0.021094246 -0.031046657 0.039699443 -0.034687694 -0.044700943 0.043156933
-0.121787846 -0.0022465321 -0.077698365 0.042542487 0.09261946 -0.06905975 0.055417895 0.014635901
-0.013987272 0.012916077 -0.007188052 -0.021050368 -0.03884187 -0.13803172 0.009499052 -0.061184768
0.059318155 0.08594889 -0.02602552 -0.035418797 -0.06831438 -0.08673839 -0.08683998 -0.06811322
0.021147382 -0.042572614 0.0131565705 -0.13213927 0.10067456 0.023112636 0.023970474 0.12198641
0.18232195 0.0013062776 0.009579711 -0.024526933 -0.01804212 -0.035942644 0.14469522 0.017959408
-0.016087001 0.045527104 -0.007825252 -0.043088082 -0.027502075 -0.08224827 -0.14185171 0.07668392
-0.04695974 0.09320524 0.0031882878 -0.16008036 0.075246885 -0.097652495 0.14375831 0.072465725
0.025875399 -0.10159781 0.103632376 0.048842564 -0.065373346 -0.12092684 0.047258914 0.06682205
0.13460352 0.022361215 -0.09064202 0.019663682 -0.02085423 -0.043386452 0.1580007 0.05259418
0.08884935 0.03201009 -0.076573715 0.054965302 -0.11681691 0.18495938 0.07214071 -0.0075321104
0.0037101877 0.0011350199 0.11429445 0.01096994 0.084849335 -0.0009313201 0.06426491 0.018180367
0.10746652 -0.081137806 -0.0021950966 -0.06403934 -0.028988017 0.019173576 0.12263039 0.044033103
-0.018977333 -0.028284492 0.07642848 0.024683585 -0.17286703 0.05469638 -0.11228561 -0.06903142
-0.17085543 -0.17656295 -0.049383096 0.04868463 -0.026746623 -0.12397535 0.16511789 0.035587206
-0.0635167 -0.08136189 -0.04455558 -0.0058574635 0.101600036 0.10622903 -0.1468579 -0.1936929
0.10228068 0.100797914 -0.10579919 0.06492273 -0.012583922 -0.10260821 0.099867485 0.21486436
-0.13336661 0.11937992 -0.06885197 0.0010769423 0.0042283866 0.1297884 -0.058568828 -0.11931826
0.14295395 -0.0009555367 0.039915584 0.10129114 -0.01482341 -0.11691375 -0.020944813 0.0835822
-0.14986672 0.038260195 0.09392495 -0.10855458 0.13499749 0.010825104 -6.3825646e-05 -0.0067103226
0.015528083 -0.056785576 -0.03878887 -0.029731952 0.1460724 -0.03698741 0.22065121 -0.066558994
-0.07395764 0.050213195 0.0667956 -0.21940193 -0.07615772 0.059046913 0.11268887 0.09209826
0.056104302 0.18187504 -0.108517975 -0.12908162 -0.010936814 0.072546765 -0.06108454 -0.033246793
-0.08263873 0.012276977 0.025430862 0.12462783 -0.032974027 -0.0888276 -0.028120406 -0.117298625
0.14745976 -0.09991252 0.022805149 0.0054562264 -0.10960735 0.05029037 -0.09792594 0.035636686
0.05074369 0.1804201 0.035906192 -0.0558689 0.003963209 -0.13506761 -0.120967746 -0.009727233
0.06991381 -0.13182783 -0.073859364 0.04904444 -0.039426755 0.09351108 0.058759455 0.0042609125
0.067118265 -0.14044824 -0.0009645658 -0.2237502 -0.016670326 -0.14799416 0.12774962 0.02045553
-0.023594752 0.015920477 0.066367 -0.15929697 -0.07688696 -0.09931287 -0.013657896 -0.030877236
0.050731856 0.022245673 -0.08739497 0.027745573 -0.04114968 -0.047661334 0.16833015 -0.015540319
0.023578359 -0.1627204 -0.008433581 0.05185839 -0.13658904 -0.04929164 0.058210596 0.03353079
0.13956107 -0.06225898 -0.010335083 0.04210079 0.090803415 -0.014026484 0.06663214 -0.0016860974

network_body._body_endoder.seq_layers.2.bias f4 [128]
00000000: 0000 0000 0000 0000 0000 0000 0000 0000
00000010: 0000 0000 0000 0000 0000 0000 0000 0000
00000020: 0000 0000 0000 0000 0000 0000 0000 0000
00000030: 0000 0000 0000 0000 0000 0000 0000 0000
00000040: 0000 0000 0000 0000 0000 0000 0000 0000
00000050: 0000 0000 0000 0000 0000 0000 0000 0000
00000060: 0000 0000 0000 0000 0000 0000 0000 0000
00000070: 0000 0000 0000 0000 0000 0000 0000 0000
00000080: 0000 0000 0000 0000 0000 0000 0000 0000
00000090: 0000 0000 0000 0000 0000 0000 0000 0000
000000a0: 0000 0000 0000 0000 0000 0000 0000 0000
000000b0: 0000 0000 0000 0000 0000 0000 0000 0000
000000c0: 0000 0000 0000 0000 0000 0000 0000 0000
000000d0: 0000 0000 0000 0000 0000 0000 0000 0000
000000e0: 0000 0000 0000 0000 0000 0000 0000 0000
000000f0: 0000 0000 0000 0000 0000 0000 0000 0000
00000100: 0000 0000 0000 0000 0000 0000 0000 0000
00000110: 0000 0000 0000 0000 0000 0000 0000 0000
00000120: 0000 0000 0000 0000 0000 0000 0000 0000
00000130: 0000 0000 0000 0000 0000 0000 0000 0000
00000140: 0000 0000 0000 0000 0000 0000 0000 0000
00000150: 0000 0000 0000 0000 0000 0000 0000 0000
00000160: 0000 0000 0000 0000 0000 0000 0000 0000
00000170: 0000 0000 0000 0000 0000 0000 0000 0000
00000180: 0000 0000 0000 0000 0000 0000 0000 0000
00000190: 0000 0000 0000 0000 0000 0000 0000 0000
000001a0: 0000 0000 0000 0000 0000 0000 0000 0000
000001b0: 0000 0000 0000 0000 0000 0000 0000 0000
000001c0: 0000 0000 0000 0000 0000 0000 0000 0000
000001d0: 0000 0000 0000 0000 0000 0000 0000 0000
000001e0: 0000 0000 0000 0000 0000 0000 0000 0000
000001f0: 0000 0000 0000 0000 0000 0000 0000 0000
0.0 0.0 0.0 0.0 0.0 0.0 0.0 0.0
0.0 0.0 0.0 0.0 0.0 0.0 0.0 0.0
0.0 0.0 0.0 0.0 0.0 0.0 0.0 0.0
0.0 0.0 0.0 0.0 0.0 0.0 0.0 0.0
0.0 0.0 0.0 0.0 0.0 0.0 0.0 0.0
0.0 0.0 0.0 0.0 0.0 0.0 0.0 0.0
0.0 0.0 0.0 0.0 0.0 0.0 0.0 0.0
0.0 0.0 0.0 0.0 0.0 0.0 0.0 0.0
0.0 0.0 0.0 0.0 0.0 0.0 0.0 0.0
0.0 0.0 0.0 0.0 0.0 0.0 0.0 0.0
0.0 0.0 0.0 0.0 0.0 0.0 0.0 0.0
0.0 0.0 0.0 0.0 0.0 0.0 0.0 0.0
0.0 0.0 0.0 0.0 0.0 0.0 0.0 0.0
0.0 0.0 0.0 0.0 0.0 0.0 0.0 0.0
0.0 0.0 0.0 0.0 0.0 0.0 0.0 0.0
0.0 0.0 0.0 0.0 0.0 0.0 0.0 0.0

action_model._continuous_distribution.log_sigma f4 [1, 2]
00000000: 0000 0000 0000 0000
0.0 0.0

action_model._continuous_distribution.mu.weight f4 [2, 128]
00000000: af63 29bc 5999 bd3c 37c0 de3c 8563 f5bb
00000010: 608e f23c 4299 fdba db51 913c 20b0 e93b
00000020: 5211 9c3b eb8a 8339 7292 593c cf86 39bc
00000030: 1bc1 f2bb 6944 123b 80d4 a9bc 51e0 1c3b
00000040: 8b39 19bd 77c9 edbc c01c fa3a 8799 d4bc
00000050: 8f32 2dbd bbf4 a9bc 4bac 313b 3534 03bd
00000060: ffce 253b 0799 eebb aa31 7bbb 71c7 103c
00000070: c7e2 7a3c a8fa 293d 3d04 d23c 9b69 4dbc
00000080: b077 9fbc 7f00 4b3b a10e a13c 927c 4dbb
00000090: 5028 f1bc c7a3 d0bc d301 b9bc 3890 ef3b
000000a0: fe4b af3c b827 65bc 8e36 9f3c eab1 393c
000000b0: 500e febb 4335 783c 6836 223c 2bfd a6bc
000000c0: 4516 d33c 1709 dbbc 07ed 2c3c 054e 133c
000000d0: b219 73bc 5f7b 0b3c 8b68 483c f3ea e23c
000000e0: 96e6 86bc 3b5b 473b 9359 8c3a d341 123c
000000f0: dd5a f03c c708 3dba debc 9d3c 9bf4 0d3c
00000100: 43b2 1dbd 434e 84bb 8fba 7c3c 9f38 8f3c
00000110: 420e 4ebc cae0 e2bb b612 12bc c135 9b3c
00000120: dba4 fbbb 3735 413d 2161 133c 1712 ad3c
00000130: bb56 babb c1cb 8f3a 1bc9 7f3c 52f5 66bb
00000140: 33db c53b fbf5 b9bc 636b abbc a7df 353c
00000150: f337 543c 378d e9ba ddc9 a3bc f71c e3bb
00000160: df39 453b a23b 303c d722 bd3c 1a81 25bb
00000170: 538a f83a ca4d 773b 0531 f33b 0a55 8d3c
00000180: 5305 003d 129d 26bc 2b59 c6ba 10ff c0bb
00000190: 07b6 eabb 736a 5e3a a823 30bc a1dd 9a3b
000001a0: 8742 e93c 7ae2 16bd 92bd 8ebb 9305 483b
000001b0: 476f d9bb a092 d9bc e006 f93b 9d83 47bb
000001c0: 2375 b83b 4300 9e3c 7688 86ba 42da 5d3c
000001d0: 184e 5abc 5bd3 d03b 3f21 56bb f08a 693c
000001e0: 2392 24bc 9b88 123b 2e28 92bc d85d 313c
000001f0: dcfb ac3c bd12 1fbc 6f6c 8f3b ff0e 723b
00000200: 0ff7 60bd ad5e d539 c077 443c 97a3 7dbc
00000210: 69fa 04bd 2336 bf3c 221b 18bb 86d4 c43c
00000220: c2dc d03c 888e 42bc 4b3a c73b e29e e5bb
00000230: 788d 9dbc 6a03 c93c 38c9 0cbc 0b64 e4bc
00000240: 62f1 0f3d 2326 ffbb 5d1b 6c3c b04d b1bc
00000250: a911 c1bb 3dbb 90bc eab2 19bb 8261 01bc
00000260: 0a59 073c 8cb7 903c d3df f0bc 9082 7a3c
00000270: 24bf 253c cdba ebbc e542 803a cbc9 de3c
00000280: 15c4 203c 7c54 81bb 92a3 d7bc 424b acbb
00000290: d0cb ee3b 0597 e3bb 458b 2fbc 5b51 ecbc
000002a0: 814c 2b3d 92a4 d43b e355 02bc 05dc d0bc
000002b0: a2bf 1ebc 93d3 bcbc 238a b3bc cda8 793c
000002c0: 8e81 863c 8785 d7bb a06a 933a 1d7c 72bb
000002d0: 7f0b 3abc 53b2 5cbb 6bf3 86bc aefe 06bc
000002e0: 8d13 b7bc 9800 00bc cf90 9fbc f2c8 c6bb
000002f0: 8a6a a13b e36a e33c 57de 0bbb b0b1 503c
00000300: 9513 f8bc e5b4 63bc b71d 603c f0bf 97bb
00000310: bbfd 86bc c863 96bc 1e9c 25bc e724 38bb
00000320: 869b 9b3b 5d2d 8cbc fb8d 543c c312 e53b
00000330: 670d 2bbc 8595 663c d7cf 43bc b71a 8a3c
00000340: 5531 fcbc 47fe 03bd e3c7 853c 77b1 d53b
00000350: e727 c3bc dfd8 583b 675d 2c3c fb2d 743c
00000360: f5ea 273b a90f 193c 68ca 24bd 8ba0 8ebc
00000370: bac4 5cbc 220b 4ebc d3cd 723c f602 3abc
00000380: 8757 a0bc 93b2 f4bb 247c 863c 7dc6 d2bc
00000390: 2df4 53bc c557 eaba b7ff 82bc 0535 84bc
000003a0: fcad 183a dc3e 8cbc 9dfd faba 8732 b2b9
000003b0: 589c 893b 7755 afba 0e98 0d3c 783f 9ebc
000003c0: d8e4 cdbc f2ef 2e3d 823d bf3c 1c8e 20bd
000003d0: 413a 39bb 826e a13b 664a 2abc 53d6 bb3c
000003e0: 47f2 efbb 333c f3bb 0211 88bc a2bc 42bc
000003f0: fe58 47bc 906e 3c3b d601 03bc e88f d2bc
-0.010338708 0.02314441 0.027191265 -0.0074886703 0.029608905 -0.0019348043 0.017739227 0.0071315914
0.004762807 0.0002508977 0.013279544 -0.011323645 -0.007408274 0.0022318608 -0.02073121 0.0023937414
-0.037408393 -0.02902673 0.0019082054 -0.025952114 -0.042284545 -0.02074658 0.0027110751 -0.03203221
0.0025300381 -0.007281426 -0.0038329163 0.008836613 0.015312857 0.04149881 0.025636787 -0.012537385
-0.019466251 0.0030975637 0.019660296 -0.0031354767 -0.029438168 -0.02546872 -0.022583878 0.0073108934
0.02139854 -0.0139865205 0.019435193 0.011333922 -0.007753171 0.015149417 0.009900667 -0.020384392
0.025767455 -0.026737733 0.010554559 0.008990769 -0.014837669 0.008513301 0.012231956 0.027699923
-0.016467374 0.0030419368 0.0010707848 0.0089268265 0.029340202 -0.0007211086 0.019255098 0.0086642755
-0.03850008 -0.00403765 0.015425338 0.017483054 -0.0125766415 -0.0069237696 -0.008915594 0.01894653
-0.0076795644 0.04716989 0.008995325 0.02112679 -0.0056866086 0.0010970758 0.015611912 -0.0035241437
0.0060380935 -0.0227003 -0.02092523 0.011100686 0.012952792 -0.0017818575 -0.019993717 -0.006930943
0.0030094308 0.010756405 0.023087902 -0.0025253952 0.0018962122 0.0037735575 0.007421615 0.017252464
0.031255078 -0.010169284 -0.0015132775 -0.005889781 -0.0071628126 0.000848449 -0.010750689 0.0047261273
0.028474106 -0.03683708 -0.0043560946 0.00305209 -0.0066355797 -0.026559174 0.0075996965 -0.0030443438
0.005629198 0.019287234 -0.0010264057 0.013540806 -0.013324283 0.006372852 -0.0032673625 0.014254317
-0.010044607 0.0022359255 -0.017841425 0.010825597 0.02111619 -0.009709057 0.00437694 0.0036935208
-0.054923113 0.00040697065 0.011991441 -0.015480897 -0.032465372 0.023341244 -0.0023209532 0.02402712
0.02549589 -0.011874802 0.006079947 -0.0070074657 -0.019232497 0.02453776 -0.008592896 -0.027879735
0.03514231 -0.0077865287 0.014410821 -0.02164349 -0.005891998 -0.017667407 -0.0023452588 -0.007896783
0.008260975 0.017665647 -0.029403603 0.015289918 0.010116372 -0.028775597 0.0009785561 0.027195832
0.009812375 -0.003946839 -0.026323114 -0.005257995 0.00728748 -0.006945493 -0.010714357 -0.028847387
0.041821007 0.006489345 -0.007955047 -0.025495538 -0.0096892435 -0.023050105 -0.021916455 0.015237999
0.016419198 -0.006577197 0.0011246987 -0.0037000247 -0.01135528 -0.0033675625 -0.016473493 -0.008239431
-0.02234819 -0.007812642 -0.01947823 -0.006066435 0.0049260305 0.027760928 -0.0021342242 0.0127376765
-0.030282775 -0.013898109 0.01367896 -0.004631035 -0.01647841 -0.018358126 -0.010108022 -0.0028098167
0.0047487644 -0.017111475 0.012973304 0.006990762 -0.010440207 0.014073734 -0.011951408 0.016858442
-0.030785242 -0.03222492 0.016330665 0.0065213996 -0.023822738 0.003308825 0.010520316 0.014903541
0.0025622223 0.009342113 -0.040232092 -0.017410537 -0.013474638 -0.012575896 0.01481958 -0.011353245
-0.019572986 -0.007467577 0.016416617 -0.025729412 -0.012936634 -0.001787894 -0.015991075 -0.016138563
0.00058242655 -0.017119817 -0.0019149069 -0.00033988451 0.004199546 -0.0013376911 0.00864221 -0.019317374
-0.025133535 0.0427093 0.023344759 -0.039198026 -0.0028263482 0.0049265036 -0.0103937145 0.022929346
-0.007322583 -0.007422948 -0.016609672 -0.011885794 -0.0121672135 0.0028752424 -0.007996043 -0.025703385

action_model._continuous_distribution.mu.bias f4 [2]
00000000: 0000 0000 0000 0000
0.0 0.0

network_body._body_endoder.seq_layers.0.weight f4 [128, 8]
00000000: 57f6 21bd 4ebe c23e 59a6 90be 958a 5fbe
00000010: af95 db3d ea37 b1be 81ed 4abf abe1 103f
00000020: 6132 203e 8329 433e bd03 29bf 550c 3e3c
00000030: 2daa 2dbf b162 243f 6e18 603f 9ca6 233f
00000040: 05db f03d 7b77 75be 176d 39bf 5520 983c
00000050: fcec 353d 77b0 29be e148 f9bd f15d 87bd
00000060: 5aa6 f83e b781 06be b8ee 46be 5228 5dbe
00000070: 95c8 033d 7491 ff3e 5e51 873b e785 4abd
00000080: 0619 c4bc 7d51 80be 9f36 57be 0456 d63c
00000090: 12bf 6bbe 0ac5 cebe a933 3a3f 364f f4bc
000000a0: 79f8 1cbc 72c8 11bd 12c0 c1be f3fd 0c3e
000000b0: beab 5ebe c101 b3bd 0368 3cbf 43c5 8bbe
000000c0: 6507 06be ba61 d23e 4fd6 95be 206c fd3e
000000d0: ba20 f5bd 8bef 093f eb94 9abd b49c 58be
000000e0: 6f68 fcbe 1d67 0abe c1cb 103d 3cfb 343f
000000f0: e975 093f 8d2e 96bd 5190 203e 8988 9ebe
00000100: c8d7 96bd 3244 543e 9293 17bb e567 623f
00000110: b0fd 9bbe 2af1 d93e 8469 0a3e ee43 183d
00000120: 1e8e 33bd 7e9d a03e 9971 e4be fe02 17be
00000130: 3a7c e73d a284 48bf fc89 8f3d b098 b33d
00000140: 0ff5 d93e b73a fe3d f1e2 a23c e3c3 913e
00000150: f552 36bd df91 8f3e 0c87 9e3d 1607 13bf
00000160: 94ef f7bc ec3c 62be cf4c ca3e e15c 953e
00000170: 2548 a8be a9d0 34be ec14 9b3e 78e7 be3c
00000180: 7ea6 113d 3707 4a3c 2779 373d 674c 1b3e
00000190: 4de9 a7bd 5f4d 533f 4a5f 3abd bc1d 9fbe
000001a0: c90e 543e dae4 d1be 7e27 36be 1492 133e
000001b0: 472a 9dbe 2b76 463f cd48 973e cc04 24bf
000001c0: 1d31 073f 604b ecbd e4d5 033f 2ed2 5d3e
000001d0: 34f0 a9be cf0f a03d 181e 18bd d0b5 febe
000001e0: a1f5 98be 3010 b03d 2745 81be 8b9c 04bd
000001f0: 1792 383f 25e9 14bc 37dc 38bd 99f9 a7bd
00000200: efde d43e bc2d aa3e 73f0 ba3e 83d3 13bf
00000210: 49a4 8c3e 2e5d ad3e 865e 3cbe 6c40 5b3e
00000220: eca5 e73e 58ea 4a3e e4c9 47bc caa1 b93e
00000230: 86be e9be 50d6 703e a589 623e f2c9 c6be
00000240: 25d7 11be cf40 0abe e1d0 133e 75ed a23e
00000250: eb01 883e 7b15 333f a982 c9be b375 3a3f
00000260: 1e1f 12bf 3703 eebb 8ece 4ebe 1bc9 8b3e
00000270: b037 ac3e 4428 05bf 48a5 503e 69e0 aa3e
00000280: 4213 523e 7bc0 053f 3ab8 69be 767a a5bd
00000290: 09f0 9ebc 75ca 1f3e 36fb 76be 63cb dabe
000002a0: 197f 62be ce4f 3dbf 5d24 26be aac2 4cbf
000002b0: 40c1 153e 96bf 38bf 124b d03e e938 b43e
000002c0: c0ec 593e 4298 173e 06a5 97bd 1c0b bc3d
000002d0: 9cde 1abe 928c 13bf e28c 543d 3fdf 283f
000002e0: 9f12 4a3d 04b4 c13e 1014 b0be b3da 85bd
000002f0: b368 68be 0ca4 ffbc 87cb 423e 537b 283e
00000300: 08eb f3be d996 be3e 3ef3 e8bc ca18 aaba
00000310: a1d7 ccbd f614 6dbe 0891 883f c93e 223f
00000320: 5a78 003f 1fdd c23e 14cd 6f3d f5b4 c3be
00000330: bc85 c43e 110e 62be a7cb 8a3e c775 f33d
00000340: 5d79 0abd 92d3 7ebe e07d 06bf dc85 abbe
00000350: 1379 a0bd db06 0c3f 4c44 3d3e 7855 bdbc
00000360: 031f b53e eac8 0dbd e267 8e3e 5d15 2a3f
00000370: a48c 343e 3968 3fbe c1b3 913e 476f 0dbe
00000380: 767a 0cbf bc99 183d 0434 6cbe e4ec 03be
00000390: ca13 3fbf a24c 3c3d fb14 223e c8ca 543e
000003a0: ff7d 4a3e b2bd 47be 1657 a1be d847 ccbd
000003b0: 52a9 18bd ab68 13be 4b6f b9be 8ad3 a1bd
000003c0: 95b4 183f 1213 803e 243e 333f c878 83be
000003d0: b1b8 edbd 684c 033f 1cce a8bc 166b 853d
000003e0: 45b1 a1bc 9c2a 36be 3443 1dbf 5894 cbbe
000003f0: 3a21 963d edc4 283e 623e 43be 5e50 52bd
-0.03954157 0.38035816 -0.28251913 -0.21830209 0.10721909 -0.34612972 -0.7926865 0.5659434
0.15644218 0.19058804 -0.6602133 0.01159962 -0.6783779 0.6421309 0.87537277 0.639261
0.11760525 -0.2397136 -0.7243208 0.018570105 0.04441546 -0.16571222 -0.12172104 -0.06609715
0.48564416 -0.1313542 -0.19427001 -0.21597412 0.03217371 0.4991566 0.004129573 -0.049444105
-0.023937713 -0.2506217 -0.2101693 0.026164062 -0.23022106 -0.40384704 0.7273508 -0.029822927
-0.009580725 -0.03559155 -0.3784185 0.13768749 -0.21745202 -0.08740569 -0.7359621 -0.27298936
-0.13088758 0.41090184 -0.29265067 0.49496555 -0.11969133 0.5388114 -0.07547935 -0.21153527
-0.49298427 -0.13515897 0.035350565 0.70695853 0.5369554 -0.073330976 0.15680052 -0.30963543
-0.07365376 0.2072914 -0.002312873 0.8843978 -0.30466986 0.42566806 0.13516814 0.037174158
-0.043836705 0.31370157 -0.44617918 -0.14747235 0.11302991 -0.7832738 0.0700874 0.08769357
0.42569777 0.12413543 0.019883605 0.28469762 -0.044512708 0.28040978 0.07740602 -0.5743269
-0.030265607 -0.22093552 0.39511725 0.29172423 -0.32867542 -0.17657723 0.302894 0.023303732
0.03555917 0.012330822 0.044793274 0.15165864 -0.081987955 0.82539934 -0.04550103 -0.31077373
0.20708765 -0.40994912 -0.17788503 0.14411193 -0.30696318 0.7752406 0.2954773 -0.6406982
0.52809316 -0.11537814 0.51498246 0.21662208 -0.33191073 0.07815515 -0.037138075 -0.49748087
-0.298749 0.085968375 -0.25248072 -0.032375854 0.72097915 -0.009088789 -0.04513189 -0.08201904
0.41576335 0.33238018 0.36511573 -0.57744616 0.2746909 0.33860153 -0.18395433 0.21411294
0.45243776 0.19815958 -0.012194131 0.36256248 -0.4565317 0.23519254 0.2212282 -0.38825947
-0.14242227 -0.13501285 0.1443515 0.3182179 0.26563963 0.6995465 -0.39357498 0.72835845
-0.5707873 -0.007263567 -0.20195982 0.2730187 0.33636236 -0.52014565 0.2037555 0.33374336
0.20515159 0.52246827 -0.22824183 -0.08079998 -0.019401567 0.15604575 -0.24119267 -0.42733297
-0.22118796 -0.739499 -0.16224809 -0.79984534 0.146245 -0.72167337 0.40682274 0.3519967
0.21281719 0.14804175 -0.074045226 0.091818064 -0.15123981 -0.5763637 0.05189217 0.65965647
0.049334165 0.37832654 -0.34390306 -0.06535854 -0.2269619 -0.031206153 0.19022952 0.16453294
-0.47640252 0.37224463 -0.0284363 -0.0012977358 -0.100020654 -0.23152527 1.066926 0.6337705
0.5018364 0.38059327 0.058545187 -0.38223997 0.3838328 -0.22075678 0.271085 0.118876986
-0.033807147 -0.24885395 -0.5253582 -0.33500564 -0.07835593 0.5469796 0.18483084 -0.023112044
0.35375223 -0.034615435 0.2781363 0.6643885 0.17631775 -0.18692102 0.28457454 -0.1381198
-0.5487436 0.037255988 -0.23066717 -0.12883335 -0.7463957 0.04597152 0.15828316 0.2078048
0.19774626 -0.19505957 -0.31511754 -0.099746406 -0.03727085 -0.14395396 -0.36217722 -0.07901676
0.59650546 0.2501455 0.70016694 -0.25678086 -0.11607493 0.5128846 -0.020606093 0.06514566
-0.019737849 -0.17789692 -0.6143067 -0.39761615 0.07330556 0.16481371 -0.19066766 -0.051346175

network_body._body_endoder.seq_layers.0.bias f4 [128]
00000000: 0000 0000 0000 0000 0000 0000 0000 0000
00000010: 0000 0000 0000 0000 0000 0000 0000 0000
00000020: 0000 0000 0000 0000 0000 0000 0000 0000
00000030: 0000 0000 0000 0000 0000 0000 0000 0000
00000040: 0000 0000 0000 0000 0000 0000 0000 0000
00000050: 0000 0000 0000 0000 0000 0000 0000 0000
00000060: 0000 0000 0000 0000 0000 0000 0000 0000
00000070: 0000 0000 0000 0000 0000 0000 0000 0000
00000080: 0000 0000 0000 0000 0000 0000 0000 0000
00000090: 0000 0000 0000 0000 0000 0000 0000 0000
000000a0: 0000 0000 0000 0000 0000 0000 0000 0000
000000b0: 0000 0000 0000 0000 0000 0000 0000 0000
000000c0: 0000 0000 0000 0000 0000 0000 0000 0000
000000d0: 0000 0000 0000 0000 0000 0000 0000 0000
000000e0: 0000 0000 0000 0000 0000 0000 0000 0000
000000f0: 0000 0000 0000 0000 0000 0000 0000 0000
00000100: 0000 0000 0000 0000 0000 0000 0000 0000
00000110: 0000 0000 0000 0000 0000 0000 0000 0000
00000120: 0000 0000 0000 0000 0000 0000 0000 0000
00000130: 0000 0000 0000 0000 0000 0000 0000 0000
00000140: 0000 0000 0000 0000 0000 0000 0000 0000
00000150: 0000 0000 0000 0000 0000 0000 0000 0000
00000160: 0000 0000 0000 0000 0000 0000 0000 0000
00000170: 0000 0000 0000 0000 0000 0000 0000 0000
00000180: 0000 0000 0000 0000 0000 0000 0000 0000
00000190: 0000 0000 0000 0000 0000 0000 0000 0000
000001a0: 0000 0000 0000 0000 0000 0000 0000 0000
000001b0: 0000 0000 0000 0000 0000 0000 0000 0000
000001c0: 0000 0000 0000 0000 0000 0000 0000 0000
000001d0: 0000 0000 0000 0000 0000 0000 0000 0000
000001e0: 0000 0000 0000 0000 0000 0000 0000 0000
000001f0: 0000 0000 0000 0000 0000 0000 0000 0000
0.0 0.0 0.0 0.0 0.0 0.0 0.0 0.0
0.0 0.0 0.0 0.0 0.0 0.0 0.0 0.0
0.0 0.0 0.0 0.0 0.0 0.0 0.0 0.0
0.0 0.0 0.0 0.0 0.0 0.0 0.0 0.0
0.0 0.0 0.0 0.0 0.0 0.0 0.0 0.0
0.0 0.0 0.0 0.0 0.0 0.0 0.0 0.0
0.0 0.0 0.0 0.0 0.0 0.0 0.0 0.0
0.0 0.0 0.0 0.0 0.0 0.0 0.0 0.0
0.0 0.0 0.0 0.0 0.0 0.0 0.0 0.0
0.0 0.0 0.0 0.0 0.0 0.0 0.0 0.0
0.0 0.0 0.0 0.0 0.0 0.0 0.0 0.0
0.0 0.0 0.0 0.0 0.0 0.0 0.0 0.0
0.0 0.0 0.0 0.0 0.0 0.0 0.0 0.0
0.0 0.0 0.0 0.0 0.0 0.0 0.0 0.0
0.0 0.0 0.0 0.0 0.0 0.0 0.0 0.0
0.0 0.0 0.0 0.0 0.0 0.0 0.0 0.0

network_body._body_endoder.seq_layers.2.weight f4 [128, 128]
00000000: 55fa 623d ad07 803d c0dc 373e 4aa9 173e
00000010: a5e3 a7ba a05e 2ebd 4f0f 8c3b f54b bebc
00000020: 703b 2cbe 7124 353d bcae 743d a436 f9bd
00000030: 009e 203d 667c 5abd 9c7b 8f3d a3f8 ccbd
00000040: 12d1 4c3d 663e 8c3d ed81 62bc 3842 6b3c
00000050: 5ba2 52bd 2adb dcbc 1ee2 f2bd 84f9 84bb
00000060: d0d5 76bd 6bc4 ebbc b29a 77bd 81fc c8bd
00000070: d292 fabc bd0f 963d d417 103e 585d 3e3e
00000080: c2f9 273d 3e01 6ebd 519c 79bd c148 b8bd
00000090: 75e2 0bbe bb2c e73d 4dfe 15bc 2b74 da3c
000000a0: bd94 3b3e 5e45 d73d e036 91bd f337 23be
000000b0: baa4 223e 61e9 90bd 44fe 96bd 369b 92bd
000000c0: 6438 98bd 44b9 55bd e3d5 083e 99b7 683d
000000d0: 6122 fcbd 4d40 fcbc f13a 093e e2ce ff3d
000000e0: 9a19 f73b 187f 683b 1b7f 97bd 6908 2ebe
000000f0: a447 fd3c 40de 313c 9dc8 efbd e7a8 a13c
00000100: b4e9 2dbe f246 b1bc 7e37 3abd 9943 c3bc
00000110: c090 19be 6c4b 003e 7b3e 88bd 45d7 92bd
00000120: ae4a 9fbd 97c5 7d3e 50f1 1ebd 4d9f 1dbc
00000130: 8f15 b1bd c2b7 323d a082 d83d 8e7a 083e
00000140: 6710 553d a7e0 883e ebf2 32bd f499 6cbd
00000150: 3bd0 713c 20f8 e4bd 03a0 af3b ee81 883d
00000160: 1243 f93c 4c16 91bc 4c9c 4abd 3e67 c53d
00000170: a35f 22be fcbf e4bb 3fae 60be 58df 51bd
00000180: c627 9e3d 0828 8dbd 1d5f 51bd 43de d5bd
00000190: 5ac0 11be 0a67 d23d 2e17 0abe 9333 b9bb
000001a0: 294a 9ebd 67d1 b2bd 18ff f43b 7523 15bc
000001b0: 7341 003d aff1 043c 24c9 d63d cad4 ccbd
000001c0: 09dd 8c3d dc37 8c3d d4a6 7dbc 423c 8b3d
000001d0: 0d71 a63e 4480 d63c a669 623d cb6a 833c
000001e0: 8aad 05be d6f9 173e 02d0 bf3c 227f bbbd
000001f0: fd66 bbbd 5585 e0bd dfae 4d3c a82f 5a3d
00000200: bd8d adbd c00e a8bd d209 a03d b4b4 6f3c
00000210: 3fc5 7bbc 5a07 ee3c 6d13 fa3d 8bbb b0bc
00000220: 71bb 883c 383b 9bbd 14d4 e23d 1d28 8abd
00000230: 3fb3 893d a628 0dbd 2140 eb3c 3a20 35bd
00000240: 457d fdbc 8090 92bd c776 c6bc 8f1c 203e
00000250: ba38 e83d a15a 003e ea6c 413d c46e 753c
00000260: 02c6 4bbc a26e c03d 040b 823d 5815 eebd
00000270: b4fd 04bc 79dc 0f3e 517a e8bb cbab dbbc
00000280: b6d0 69bd 9418 e2bd b258 65bd e9b1 65bc
00000290: e181 8a3c 3825 393d 3d66 383d fdcc 633d
000002a0: 29b0 05be 99de fabb 061f edbc 8490 1d3d
000002b0: c7ef f83d 243a d43c a912 713d cee3 143e
000002c0: fb9b 1dbe d3d1 fcbd 8fc6 6c3e 5c10 ff3d
000002d0: 05de 113d 6cd5 19be 4779 5bbd b00c 3fbd
000002e0: 98ec f7bb 7ad6 053d a090 f33c 3dd2 0e3e
000002f0: 78ce 233c 01ce 7ebd 1aaf 713d 334a 883d
00000300: 345b 873d dc58 99bd ef2f 9abd 86af d53c
00000310: 7cbf 6a3e 37f9 ff3d 6a59 4abd 0d26 b63d
00000320: c3df 2cbe eaae 483e 56f2 843d ff07 d5bd
00000330: 1ec7 a3bd 9667 103d 8619 d3bd b228 9d3c
00000340: ca32 6b3b e6b5 e03d 01a7 a1bb 6f6b 913d
00000350: f985 81bd 4a4b 153e 9b06 3f3d a72c bb3d
00000360: e7c8 6bbd c582 11bd de5c febd 6fd4 593d
00000370: 5646 04be 7f44 373d 7192 6cbc b8da 96bd
00000380: 388e 4cbd c2d8 9c3d 9d2f 143c a210 9f3d
00000390: 4334 533d a4d9 a73d 7f87 ad3d 3cb6 65bd
000003a0: fc8f ef3c a5ca 703d 5840 f9bd c818 20be
000003b0: 3348 00be df38 363c 3675 adbd fdec c53d
000003c0: f74a 3c3d 4994 a8bd 20cc a2bd 3ef7 de3d
000003d0: 586f 1a3c adc8 df3d d737 0b3d a975 0d3e
000003e0: 789e 743b 3270 283d f075 b83c b9ed 59bd
000003f0: db65 11bc df15 bebc c31a 34bd 5c53 0dbe
0.055414516 0.06251464 0.17955303 0.14810672 -0.0012808932 -0.04257071 0.004274286 -0.023229579
-0.16819549 0.044224206 0.059736952 -0.12168625 0.03921318 -0.05334129 0.070059985 -0.10008361
0.050004072 0.06847839 -0.013824922 0.0143590495 -0.051424365 -0.026959974 -0.11859535 -0.004058065
-0.0602625 -0.028780183 -0.060450263 -0.09813786 -0.030587588 0.073272206 0.1407159 0.18590295
0.041009672 -0.058106653 -0.06094009 -0.08998252 -0.13660605 0.112878285 -0.009154868 0.026666721
0.18318458 0.105112776 -0.07090545 -0.15939312 0.1588315 -0.070757635 -0.07372716 -0.071585104
-0.07432631 -0.052178636 0.13362841 0.056815717 -0.12311245 -0.03079238 0.1340139 0.12490632
0.0075408937 0.0035476144 -0.0739729 -0.16995396 0.03091795 0.010856211 -0.11708186 0.01973386
-0.16983682 -0.021640275 -0.045463078 -0.023835944 -0.14996624 0.12528771 -0.06652542 -0.07169966
-0.07777916 0.24782406 -0.038804352 -0.0096205 -0.0864669 0.043632276 0.1057179 0.13328001
0.052017596 0.26733896 -0.043688696 -0.05776401 0.014759119 -0.111801386 0.005359651 0.06665407
0.03042749 -0.017710827 -0.049465463 0.096388325 -0.15856795 -0.006980894 -0.2194147 -0.051238388
0.0772243 -0.06892401 -0.051116098 -0.10442784 -0.14233533 0.102735594 -0.13485405 -0.0056519
-0.07728989 -0.087313466 0.0074766986 -0.009102692 0.031312417 0.0081142625 0.10487583 -0.10001524
0.068780966 0.06846592 -0.015481669 0.06798603 0.32508126 0.026184209 0.055276535 0.016042134
-0.13054481 0.14841399 0.023414616 -0.09155108 -0.09150503 -0.10962931 0.0125539 0.053268105
-0.084743 -0.08205938 0.07814373 0.014630485 -0.015366851 0.02905624 0.122107364 -0.021573802
0.016690942 -0.075796545 0.11075607 -0.06745932 0.067236416 -0.034462593 0.028717102 -0.044220187
-0.030943522 -0.071564674 -0.02422656 0.15635894 0.11338945 0.12534572 0.04722301 0.014980022
-0.012437345 0.093961015 0.06349757 -0.11625165 -0.008117128 0.14048947 -0.0070946594 -0.026815316
-0.057083808 -0.11039844 -0.05599279 -0.014019468 0.016907634 0.04520151 0.045019377 0.055615414
-0.13055481 -0.0076559302 -0.028945457 0.0384679 0.12155109 0.02590663 0.058855686 0.14540026
-0.15391533 -0.12344708 0.23122619 0.12454292 0.035612125 -0.1502282 -0.053582456 -0.04664296
-0.007566046 0.032675244 0.029732049 0.13947387 0.009997956 -0.06220818 0.05900488 0.066547774
0.066091925 -0.07487652 -0.07528674 0.026084673 0.22924608 0.12498706 -0.04940168 0.08893976
-0.16882233 0.19597974 0.064915344 -0.10401916 -0.07996963 0.035255037 -0.103076026 0.019184444
0.0035888427 0.109721944 -0.0049332385 0.071005695 -0.063243814 0.14579502 0.04663716 0.09139376
-0.057564642 -0.035525102 -0.12420057 0.053181108 -0.12917456 0.044743057 -0.014439211 -0.07365936
-0.049940318 0.07658531 0.009044555 0.07766844 0.051563513 0.081958085 0.084731095 -0.056081995
0.029243462 0.058787007 -0.12170476 -0.15634453 -0.12527542 0.011121958 -0.08469622 0.096643426
0.04596993 -0.08231408 -0.0794909 0.108870015 0.0094259605 0.10926948 0.0339888 0.13814415
0.00373259 0.041122623 0.022517174 -0.053205226 -0.008874382 -0.023203788 -0.043970834 -0.1380133

network_body._body_endoder.seq_layers.2.bias f4 [128]
00000000: 0000 0000 0000 0000 0000 0000 0000 0000
00000010: 0000 0000 0000 0000 0000 0000 0000 0000
00000020: 0000 0000 0000 0000 0000 0000 0000 0000
00000030: 0000 0000 0000 0000 0000 0000 0000 0000
00000040: 0000 0000 0000 0000 0000 0000 0000 0000
00000050: 0000 0000 0000 0000 0000 0000 0000 0000
00000060: 0000 0000 0000 0000 0000 0000 0000 0000
00000070: 0000 0000 0000 0000 0000 0000 0000 0000
00000080: 0000 0000 0000 0000 0000 0000 0000 0000
00000090: 0000 0000 0000 0000 0000 0000 0000 0000
000000a0: 0000 0000 0000 0000 0000 0000 0000 0000
000000b0: 0000 0000 0000 0000 0000 0000 0000 0000
000000c0: 0000 0000 0000 0000 0000 0000 0000 0000
000000d0: 0000 0000 0000 0000 0000 0000 0000 0000
000000e0: 0000 0000 0000 0000 0000 0000 0000 0000
000000f0: 0000 0000 0000 0000 0000 0000 0000 0000
00000100: 0000 0000 0000 0000 0000 0000 0000 0000
00000110: 0000 0000 0000 0000 0000 0000 0000 0000
00000120: 0000 0000 0000 0000 0000 0000 0000 0000
00000130: 0000 0000 0000 0000 0000 0000 0000 0000
00000140: 0000 0000 0000 0000 0000 0000 0000 0000
00000150: 0000 0000 0000 0000 0000 0000 0000 0000
00000160: 0000 0000 0000 0000 0000 0000 0000 0000
00000170: 0000 0000 0000 0000 0000 0000 0000 0000
00000180: 0000 0000 0000 0000 0000 0000 0000 0000
00000190: 0000 0000 0000 0000 0000 0000 0000 0000
000001a0: 0000 0000 0000 0000 0000 0000 0000 0000
000001b0: 0000 0000 0000 0000 0000 0000 0000 0000
000001c0: 0000 0000 0000 0000 0000 0000 0000 0000
000001d0: 0000 0000 0000 0000 0000 0000 0000 0000
000001e0: 0000 0000 0000 0000 0000 0000 0000 0000
000001f0: 0000 0000 0000 0000 0000 0000 0000 0000
0.0 0.0 0.0 0.0 0.0 0.0 0.0 0.0
0.0 0.0 0.0 0.0 0.0 0.0 0.0 0.0
0.0 0.0 0.0 0.0 0.0 0.0 0.0 0.0
0.0 0.0 0.0 0.0 0.0 0.0 0.0 0.0
0.0 0.0 0.0 0.0 0.0 0.0 0.0 0.0
0.0 0.0 0.0 0.0 0.0 0.0 0.0 0.0
0.0 0.0 0.0 0.0 0.0 0.0 0.0 0.0
0.0 0.0 0.0 0.0 0.0 0.0 0.0 0.0
0.0 0.0 0.0 0.0 0.0 0.0 0.0 0.0
0.0 0.0 0.0 0.0 0.0 0.0 0.0 0.0
0.0 0.0 0.0 0.0 0.0 0.0 0.0 0.0
0.0 0.0 0.0 0.0 0.0 0.0 0.0 0.0
0.0 0.0 0.0 0.0 0.0 0.0 0.0 0.0
0.0 0.0 0.0 0.0 0.0 0.0 0.0 0.0
0.0 0.0 0.0 0.0 0.0 0.0 0.0 0.0
0.0 0.0 0.0 0.0 0.0 0.0 0.0 0.0

value_heads.value_heads.extrinsic.weight f4 [1, 128]
00000000: 802f 14bb dc8a 62bd 18a5 47be d242 97bd
00000010: 0cba d93d a855 2cbe 6000 c23d 2751 13be
00000020: 2c20 b6bd 407f df3c d889 313e aca4 3bbd
00000030: a0bb 17bc 16c1 013e 1479 8bbd b30b 57be
00000040: a1ff 15be 5c2a 0bbd e016 f83b 189e e23d
00000050: 4dd0 37be 0c57 0d3e c0ff 203d 05a5 56be
00000060: b077 06bc 5815 7bbd 2948 22be 590b ebbd
00000070: 9cc4 c53d bbaf 3cbe 2887 6d3d 9cbd b03d
00000080: b36e d9bd 30ec ff3d 46e1 493e ecae 02bd
00000090: f2a7 02be 1831 dc3d f2ea 063e 4069 583c
000000a0: 9c37 ce3d 8022 abbb 3191 2fbe 2e79 323e
000000b0: 0c60 403e 8cce ccbd c442 75bd 7bb3 d7bd
000000c0: aa29 3e3e c6de 15be d842 4d3e 80a5 103d
000000d0: e8da d5bc e0c7 e3bb 8a1d 03be 8403 8abd
000000e0: 70e1 d4bc e65c 92bd fcca 8fbd 4817 3fbd
000000f0: 4c72 493e 54b1 8f3d 0c21 f83d d020 1abe
00000100: bfde e2bd 8e33 083e b8f5 a63c 200f f33c
00000110: 42fd b0bd 0500 4cbe 84bb 583e e0c4 ff3c
00000120: c184 0abe f633 1fbe 800a 50bc 70db ce3c
00000130: d848 f03c 8025 383e 1cea cf3d be0b 1b3e
00000140: 1842 a9bd 68a9 ba3c f43b c43d c40c 443e
00000150: 0c99 bcbd f293 24be d820 ca3d 9ea3 403e
00000160: 6a24 2c3e f42d 0ebd 4226 583e 5ad4 24be
00000170: 125c 1b3e 4860 00bd 28f6 8c3d 20aa 3b3e
00000180: e0a4 7c3d 54e7 4ebd 10b0 b43c f77c e8bd
00000190: 1809 443d bce8 28bd 4b02 33be 7d84 36be
000001a0: 76f5 0d3e a88b 05bd 81d7 36be c156 42be
000001b0: 5c67 f93d f8c8 41be 98f9 2bbd 7c3a 19be
000001c0: b491 ab3d 672c 28be 8427 813d 5803 c83d
000001d0: 9c1b e73d ced8 38be d480 68bd 18ae 183e
000001e0: 70df 24be f0ff 6abd 1062 09bd 9e47 4c3e
000001f0: 7246 3fbe 1c11 ca3d 20a2 4a3c 8c00 d13d
-0.002261132 -0.055308208 -0.19496572 -0.07385792 0.10631189 -0.1682955 0.09472728 -0.14386426
-0.08892855 0.027282357 0.1733774 -0.04581134 -0.009261042 0.12671313 -0.06810203 -0.21000557
-0.14648296 -0.033975944 0.0075710863 0.1106531 -0.17950554 0.13802737 0.039306402 -0.20961387
-0.008207247 -0.06129965 -0.1584784 -0.11476774 0.09656641 -0.18426411 0.057990223 0.08629915
-0.10616817 0.12496221 0.19714841 -0.0319051 -0.12759379 0.107515514 0.13175562 0.013208687
0.100692004 -0.0052226186 -0.1714523 0.17429039 0.18786639 -0.10000333 -0.059878126 -0.1053228
0.18570581 -0.14635763 0.2004503 0.035314083 -0.02610536 -0.006951317 -0.12804237 -0.06738952
-0.025986403 -0.07146625 -0.07021138 -0.046653062 0.19672507 0.070162445 0.12115678 -0.1505158
-0.11077642 0.13300917 0.02038084 0.029670298 -0.08642055 -0.19921882 0.21165282 0.031221807
-0.13527204 -0.15547165 -0.012697816 0.02525112 0.02933161 0.17983055 0.10152075 0.15141198
-0.082645595 0.022785857 0.09581748 0.19145495 -0.09208879 -0.16072062 0.09869546 0.18812415
0.16810766 -0.034711793 0.21108344 -0.1609663 0.15171841 -0.03134182 0.06882888 0.18326616
0.061680675 -0.05051358 0.02205661 -0.1135196 0.047860235 -0.041237578 -0.17481343 -0.17823978
0.13863167 -0.03260389 -0.17855646 -0.18978406 0.12177917 -0.1892432 -0.041986078 -0.14963716
0.083774 -0.16423188 0.06306365 0.09766263 0.11284563 -0.18051454 -0.056763485 0.14910161
-0.1610086 -0.057372987 -0.033540785 0.19949195 -0.18679217 0.098665446 0.012367755 0.102051824
